{"config": {"input_layers": [["input_1", 0, 0]], "name": "model_1", "output_layers": [["dense_1", 0, 0]], "layers": [{"name": "input_1", "config": {"batch_input_shape": [null, null, null, 3], "dtype": "float32", "name": "input_1", "sparse": false}, "class_name": "InputLayer", "inbound_nodes": []}, {"name": "conv2d_1", "config": {"trainable": true, "bias_constraint": null, "kernel_size": [3, 3], "activation": "linear", "activity_regularizer": null, "data_format": "channels_last", "kernel_constraint": null, "kernel_regularizer": null, "padding": "valid", "bias_regularizer": null, "filters": 32, "bias_initializer": {"config": {}, "class_name": "Zeros"}, "kernel_initializer": {"config": {"seed": null, "scale": 1.0, "mode": "fan_avg", "distribution": "uniform"}, "class_name": "VarianceScaling"}, "dilation_rate": [1, 1], "name": "conv2d_1", "strides": [2, 2], "use_bias": false}, "class_name": "Conv2D", "inbound_nodes": [[["input_1", 0, 0, {}]]]}, {"name": "batch_normalization_1", "config": {"beta_initializer": {"config": {}, "class_name": "Zeros"}, "beta_constraint": null, "trainable": true, "beta_regularizer": null, "moving_mean_initializer": {"config": {}, "class_name": "Zeros"}, "epsilon": 0.001, "momentum": 0.99, "gamma_regularizer": null, "axis": 3, "center": true, "gamma_constraint": null, "name": "batch_normalization_1", "scale": false, "moving_variance_initializer": {"config": {}, "class_name": "Ones"}, "gamma_initializer": {"config": {}, "class_name": "Ones"}}, "class_name": "BatchNormalization", "inbound_nodes": [[["conv2d_1", 0, 0, {}]]]}, {"name": "activation_1", "config": {"activation": "relu", "name": "activation_1", "trainable": true}, "class_name": "Activation", "inbound_nodes": [[["batch_normalization_1", 0, 0, {}]]]}, {"name": "conv2d_2", "config": {"trainable": true, "bias_constraint": null, "kernel_size": [3, 3], "activation": "linear", "activity_regularizer": null, "data_format": "channels_last", "kernel_constraint": null, "kernel_regularizer": null, "padding": "valid", "bias_regularizer": null, "filters": 32, "bias_initializer": {"config": {}, "class_name": "Zeros"}, "kernel_initializer": {"config": {"seed": null, "scale": 1.0, "mode": "fan_avg", "distribution": "uniform"}, "class_name": "VarianceScaling"}, "dilation_rate": [1, 1], "name": "conv2d_2", "strides": [1, 1], "use_bias": false}, "class_name": "Conv2D", "inbound_nodes": [[["activation_1", 0, 0, {}]]]}, {"name": "batch_normalization_2", "config": {"beta_initializer": {"config": {}, "class_name": "Zeros"}, "beta_constraint": null, "trainable": true, "beta_regularizer": null, "moving_mean_initializer": {"config": {}, "class_name": "Zeros"}, "epsilon": 0.001, "momentum": 0.99, "gamma_regularizer": null, "axis": 3, "center": true, "gamma_constraint": null, "name": "batch_normalization_2", "scale": false, "moving_variance_initializer": {"config": {}, "class_name": "Ones"}, "gamma_initializer": {"config": {}, "class_name": "Ones"}}, "class_name": "BatchNormalization", "inbound_nodes": [[["conv2d_2", 0, 0, {}]]]}, {"name": "activation_2", "config": {"activation": "relu", "name": "activation_2", "trainable": true}, "class_name": "Activation", "inbound_nodes": [[["batch_normalization_2", 0, 0, {}]]]}, {"name": "conv2d_3", "config": {"trainable": true, "bias_constraint": null, "kernel_size": [3, 3], "activation": "linear", "activity_regularizer": null, "data_format": "channels_last", "kernel_constraint": null, "kernel_regularizer": null, "padding": "same", "bias_regularizer": null, "filters": 64, "bias_initializer": {"config": {}, "class_name": "Zeros"}, "kernel_initializer": {"config": {"seed": null, "scale": 1.0, "mode": "fan_avg", "distribution": "uniform"}, "class_name": "VarianceScaling"}, "dilation_rate": [1, 1], "name": "conv2d_3", "strides": [1, 1], "use_bias": false}, "class_name": "Conv2D", "inbound_nodes": [[["activation_2", 0, 0, {}]]]}, {"name": "batch_normalization_3", "config": {"beta_initializer": {"config": {}, "class_name": "Zeros"}, "beta_constraint": null, "trainable": true, "beta_regularizer": null, "moving_mean_initializer": {"config": {}, "class_name": "Zeros"}, "epsilon": 0.001, "momentum": 0.99, "gamma_regularizer": null, "axis": 3, "center": true, "gamma_constraint": null, "name": "batch_normalization_3", "scale": false, "moving_variance_initializer": {"config": {}, "class_name": "Ones"}, "gamma_initializer": {"config": {}, "class_name": "Ones"}}, "class_name": "BatchNormalization", "inbound_nodes": [[["conv2d_3", 0, 0, {}]]]}, {"name": "activation_3", "config": {"activation": "relu", "name": "activation_3", "trainable": true}, "class_name": "Activation", "inbound_nodes": [[["batch_normalization_3", 0, 0, {}]]]}, {"name": "max_pooling2d_1", "config": {"padding": "valid", "trainable": true, "name": "max_pooling2d_1", "strides": [2, 2], "pool_size": [3, 3], "data_format": "channels_last"}, "class_name": "MaxPooling2D", "inbound_nodes": [[["activation_3", 0, 0, {}]]]}, {"name": "conv2d_4", "config": {"trainable": true, "bias_constraint": null, "kernel_size": [1, 1], "activation": "linear", "activity_regularizer": null, "data_format": "channels_last", "kernel_constraint": null, "kernel_regularizer": null, "padding": "valid", "bias_regularizer": null, "filters": 80, "bias_initializer": {"config": {}, "class_name": "Zeros"}, "kernel_initializer": {"config": {"seed": null, "scale": 1.0, "mode": "fan_avg", "distribution": "uniform"}, "class_name": "VarianceScaling"}, "dilation_rate": [1, 1], "name": "conv2d_4", "strides": [1, 1], "use_bias": false}, "class_name": "Conv2D", "inbound_nodes": [[["max_pooling2d_1", 0, 0, {}]]]}, {"name": "batch_normalization_4", "config": {"beta_initializer": {"config": {}, "class_name": "Zeros"}, "beta_constraint": null, "trainable": true, "beta_regularizer": null, "moving_mean_initializer": {"config": {}, "class_name": "Zeros"}, "epsilon": 0.001, "momentum": 0.99, "gamma_regularizer": null, "axis": 3, "center": true, "gamma_constraint": null, "name": "batch_normalization_4", "scale": false, "moving_variance_initializer": {"config": {}, "class_name": "Ones"}, "gamma_initializer": {"config": {}, "class_name": "Ones"}}, "class_name": "BatchNormalization", "inbound_nodes": [[["conv2d_4", 0, 0, {}]]]}, {"name": "activation_4", "config": {"activation": "relu", "name": "activation_4", "trainable": true}, "class_name": "Activation", "inbound_nodes": [[["batch_normalization_4", 0, 0, {}]]]}, {"name": "conv2d_5", "config": {"trainable": true, "bias_constraint": null, "kernel_size": [3, 3], "activation": "linear", "activity_regularizer": null, "data_format": "channels_last", "kernel_constraint": null, "kernel_regularizer": null, "padding": "valid", "bias_regularizer": null, "filters": 192, "bias_initializer": {"config": {}, "class_name": "Zeros"}, "kernel_initializer": {"config": {"seed": null, "scale": 1.0, "mode": "fan_avg", "distribution": "uniform"}, "class_name": "VarianceScaling"}, "dilation_rate": [1, 1], "name": "conv2d_5", "strides": [1, 1], "use_bias": false}, "class_name": "Conv2D", "inbound_nodes": [[["activation_4", 0, 0, {}]]]}, {"name": "batch_normalization_5", "config": {"beta_initializer": {"config": {}, "class_name": "Zeros"}, "beta_constraint": null, "trainable": true, "beta_regularizer": null, "moving_mean_initializer": {"config": {}, "class_name": "Zeros"}, "epsilon": 0.001, "momentum": 0.99, "gamma_regularizer": null, "axis": 3, "center": true, "gamma_constraint": null, "name": "batch_normalization_5", "scale": false, "moving_variance_initializer": {"config": {}, "class_name": "Ones"}, "gamma_initializer": {"config": {}, "class_name": "Ones"}}, "class_name": "BatchNormalization", "inbound_nodes": [[["conv2d_5", 0, 0, {}]]]}, {"name": "activation_5", "config": {"activation": "relu", "name": "activation_5", "trainable": true}, "class_name": "Activation", "inbound_nodes": [[["batch_normalization_5", 0, 0, {}]]]}, {"name": "max_pooling2d_2", "config": {"padding": "valid", "trainable": true, "name": "max_pooling2d_2", "strides": [2, 2], "pool_size": [3, 3], "data_format": "channels_last"}, "class_name": "MaxPooling2D", "inbound_nodes": [[["activation_5", 0, 0, {}]]]}, {"name": "conv2d_9", "config": {"trainable": true, "bias_constraint": null, "kernel_size": [1, 1], "activation": "linear", "activity_regularizer": null, "data_format": "channels_last", "kernel_constraint": null, "kernel_regularizer": null, "padding": "same", "bias_regularizer": null, "filters": 64, "bias_initializer": {"config": {}, "class_name": "Zeros"}, "kernel_initializer": {"config": {"seed": null, "scale": 1.0, "mode": "fan_avg", "distribution": "uniform"}, "class_name": "VarianceScaling"}, "dilation_rate": [1, 1], "name": "conv2d_9", "strides": [1, 1], "use_bias": false}, "class_name": "Conv2D", "inbound_nodes": [[["max_pooling2d_2", 0, 0, {}]]]}, {"name": "batch_normalization_9", "config": {"beta_initializer": {"config": {}, "class_name": "Zeros"}, "beta_constraint": null, "trainable": true, "beta_regularizer": null, "moving_mean_initializer": {"config": {}, "class_name": "Zeros"}, "epsilon": 0.001, "momentum": 0.99, "gamma_regularizer": null, "axis": 3, "center": true, "gamma_constraint": null, "name": "batch_normalization_9", "scale": false, "moving_variance_initializer": {"config": {}, "class_name": "Ones"}, "gamma_initializer": {"config": {}, "class_name": "Ones"}}, "class_name": "BatchNormalization", "inbound_nodes": [[["conv2d_9", 0, 0, {}]]]}, {"name": "activation_9", "config": {"activation": "relu", "name": "activation_9", "trainable": true}, "class_name": "Activation", "inbound_nodes": [[["batch_normalization_9", 0, 0, {}]]]}, {"name": "conv2d_7", "config": {"trainable": true, "bias_constraint": null, "kernel_size": [1, 1], "activation": "linear", "activity_regularizer": null, "data_format": "channels_last", "kernel_constraint": null, "kernel_regularizer": null, "padding": "same", "bias_regularizer": null, "filters": 48, "bias_initializer": {"config": {}, "class_name": "Zeros"}, "kernel_initializer": {"config": {"seed": null, "scale": 1.0, "mode": "fan_avg", "distribution": "uniform"}, "class_name": "VarianceScaling"}, "dilation_rate": [1, 1], "name": "conv2d_7", "strides": [1, 1], "use_bias": false}, "class_name": "Conv2D", "inbound_nodes": [[["max_pooling2d_2", 0, 0, {}]]]}, {"name": "conv2d_10", "config": {"trainable": true, "bias_constraint": null, "kernel_size": [3, 3], "activation": "linear", "activity_regularizer": null, "data_format": "channels_last", "kernel_constraint": null, "kernel_regularizer": null, "padding": "same", "bias_regularizer": null, "filters": 96, "bias_initializer": {"config": {}, "class_name": "Zeros"}, "kernel_initializer": {"config": {"seed": null, "scale": 1.0, "mode": "fan_avg", "distribution": "uniform"}, "class_name": "VarianceScaling"}, "dilation_rate": [1, 1], "name": "conv2d_10", "strides": [1, 1], "use_bias": false}, "class_name": "Conv2D", "inbound_nodes": [[["activation_9", 0, 0, {}]]]}, {"name": "batch_normalization_7", "config": {"beta_initializer": {"config": {}, "class_name": "Zeros"}, "beta_constraint": null, "trainable": true, "beta_regularizer": null, "moving_mean_initializer": {"config": {}, "class_name": "Zeros"}, "epsilon": 0.001, "momentum": 0.99, "gamma_regularizer": null, "axis": 3, "center": true, "gamma_constraint": null, "name": "batch_normalization_7", "scale": false, "moving_variance_initializer": {"config": {}, "class_name": "Ones"}, "gamma_initializer": {"config": {}, "class_name": "Ones"}}, "class_name": "BatchNormalization", "inbound_nodes": [[["conv2d_7", 0, 0, {}]]]}, {"name": "batch_normalization_10", "config": {"beta_initializer": {"config": {}, "class_name": "Zeros"}, "beta_constraint": null, "trainable": true, "beta_regularizer": null, "moving_mean_initializer": {"config": {}, "class_name": "Zeros"}, "epsilon": 0.001, "momentum": 0.99, "gamma_regularizer": null, "axis": 3, "center": true, "gamma_constraint": null, "name": "batch_normalization_10", "scale": false, "moving_variance_initializer": {"config": {}, "class_name": "Ones"}, "gamma_initializer": {"config": {}, "class_name": "Ones"}}, "class_name": "BatchNormalization", "inbound_nodes": [[["conv2d_10", 0, 0, {}]]]}, {"name": "activation_7", "config": {"activation": "relu", "name": "activation_7", "trainable": true}, "class_name": "Activation", "inbound_nodes": [[["batch_normalization_7", 0, 0, {}]]]}, {"name": "activation_10", "config": {"activation": "relu", "name": "activation_10", "trainable": true}, "class_name": "Activation", "inbound_nodes": [[["batch_normalization_10", 0, 0, {}]]]}, {"name": "average_pooling2d_1", "config": {"padding": "same", "trainable": true, "name": "average_pooling2d_1", "strides": [1, 1], "pool_size": [3, 3], "data_format": "channels_last"}, "class_name": "AveragePooling2D", "inbound_nodes": [[["max_pooling2d_2", 0, 0, {}]]]}, {"name": "conv2d_6", "config": {"trainable": true, "bias_constraint": null, "kernel_size": [1, 1], "activation": "linear", "activity_regularizer": null, "data_format": "channels_last", "kernel_constraint": null, "kernel_regularizer": null, "padding": "same", "bias_regularizer": null, "filters": 64, "bias_initializer": {"config": {}, "class_name": "Zeros"}, "kernel_initializer": {"config": {"seed": null, "scale": 1.0, "mode": "fan_avg", "distribution": "uniform"}, "class_name": "VarianceScaling"}, "dilation_rate": [1, 1], "name": "conv2d_6", "strides": [1, 1], "use_bias": false}, "class_name": "Conv2D", "inbound_nodes": [[["max_pooling2d_2", 0, 0, {}]]]}, {"name": "conv2d_8", "config": {"trainable": true, "bias_constraint": null, "kernel_size": [5, 5], "activation": "linear", "activity_regularizer": null, "data_format": "channels_last", "kernel_constraint": null, "kernel_regularizer": null, "padding": "same", "bias_regularizer": null, "filters": 64, "bias_initializer": {"config": {}, "class_name": "Zeros"}, "kernel_initializer": {"config": {"seed": null, "scale": 1.0, "mode": "fan_avg", "distribution": "uniform"}, "class_name": "VarianceScaling"}, "dilation_rate": [1, 1], "name": "conv2d_8", "strides": [1, 1], "use_bias": false}, "class_name": "Conv2D", "inbound_nodes": [[["activation_7", 0, 0, {}]]]}, {"name": "conv2d_11", "config": {"trainable": true, "bias_constraint": null, "kernel_size": [3, 3], "activation": "linear", "activity_regularizer": null, "data_format": "channels_last", "kernel_constraint": null, "kernel_regularizer": null, "padding": "same", "bias_regularizer": null, "filters": 96, "bias_initializer": {"config": {}, "class_name": "Zeros"}, "kernel_initializer": {"config": {"seed": null, "scale": 1.0, "mode": "fan_avg", "distribution": "uniform"}, "class_name": "VarianceScaling"}, "dilation_rate": [1, 1], "name": "conv2d_11", "strides": [1, 1], "use_bias": false}, "class_name": "Conv2D", "inbound_nodes": [[["activation_10", 0, 0, {}]]]}, {"name": "conv2d_12", "config": {"trainable": true, "bias_constraint": null, "kernel_size": [1, 1], "activation": "linear", "activity_regularizer": null, "data_format": "channels_last", "kernel_constraint": null, "kernel_regularizer": null, "padding": "same", "bias_regularizer": null, "filters": 32, "bias_initializer": {"config": {}, "class_name": "Zeros"}, "kernel_initializer": {"config": {"seed": null, "scale": 1.0, "mode": "fan_avg", "distribution": "uniform"}, "class_name": "VarianceScaling"}, "dilation_rate": [1, 1], "name": "conv2d_12", "strides": [1, 1], "use_bias": false}, "class_name": "Conv2D", "inbound_nodes": [[["average_pooling2d_1", 0, 0, {}]]]}, {"name": "batch_normalization_6", "config": {"beta_initializer": {"config": {}, "class_name": "Zeros"}, "beta_constraint": null, "trainable": true, "beta_regularizer": null, "moving_mean_initializer": {"config": {}, "class_name": "Zeros"}, "epsilon": 0.001, "momentum": 0.99, "gamma_regularizer": null, "axis": 3, "center": true, "gamma_constraint": null, "name": "batch_normalization_6", "scale": false, "moving_variance_initializer": {"config": {}, "class_name": "Ones"}, "gamma_initializer": {"config": {}, "class_name": "Ones"}}, "class_name": "BatchNormalization", "inbound_nodes": [[["conv2d_6", 0, 0, {}]]]}, {"name": "batch_normalization_8", "config": {"beta_initializer": {"config": {}, "class_name": "Zeros"}, "beta_constraint": null, "trainable": true, "beta_regularizer": null, "moving_mean_initializer": {"config": {}, "class_name": "Zeros"}, "epsilon": 0.001, "momentum": 0.99, "gamma_regularizer": null, "axis": 3, "center": true, "gamma_constraint": null, "name": "batch_normalization_8", "scale": false, "moving_variance_initializer": {"config": {}, "class_name": "Ones"}, "gamma_initializer": {"config": {}, "class_name": "Ones"}}, "class_name": "BatchNormalization", "inbound_nodes": [[["conv2d_8", 0, 0, {}]]]}, {"name": "batch_normalization_11", "config": {"beta_initializer": {"config": {}, "class_name": "Zeros"}, "beta_constraint": null, "trainable": true, "beta_regularizer": null, "moving_mean_initializer": {"config": {}, "class_name": "Zeros"}, "epsilon": 0.001, "momentum": 0.99, "gamma_regularizer": null, "axis": 3, "center": true, "gamma_constraint": null, "name": "batch_normalization_11", "scale": false, "moving_variance_initializer": {"config": {}, "class_name": "Ones"}, "gamma_initializer": {"config": {}, "class_name": "Ones"}}, "class_name": "BatchNormalization", "inbound_nodes": [[["conv2d_11", 0, 0, {}]]]}, {"name": "batch_normalization_12", "config": {"beta_initializer": {"config": {}, "class_name": "Zeros"}, "beta_constraint": null, "trainable": true, "beta_regularizer": null, "moving_mean_initializer": {"config": {}, "class_name": "Zeros"}, "epsilon": 0.001, "momentum": 0.99, "gamma_regularizer": null, "axis": 3, "center": true, "gamma_constraint": null, "name": "batch_normalization_12", "scale": false, "moving_variance_initializer": {"config": {}, "class_name": "Ones"}, "gamma_initializer": {"config": {}, "class_name": "Ones"}}, "class_name": "BatchNormalization", "inbound_nodes": [[["conv2d_12", 0, 0, {}]]]}, {"name": "activation_6", "config": {"activation": "relu", "name": "activation_6", "trainable": true}, "class_name": "Activation", "inbound_nodes": [[["batch_normalization_6", 0, 0, {}]]]}, {"name": "activation_8", "config": {"activation": "relu", "name": "activation_8", "trainable": true}, "class_name": "Activation", "inbound_nodes": [[["batch_normalization_8", 0, 0, {}]]]}, {"name": "activation_11", "config": {"activation": "relu", "name": "activation_11", "trainable": true}, "class_name": "Activation", "inbound_nodes": [[["batch_normalization_11", 0, 0, {}]]]}, {"name": "activation_12", "config": {"activation": "relu", "name": "activation_12", "trainable": true}, "class_name": "Activation", "inbound_nodes": [[["batch_normalization_12", 0, 0, {}]]]}, {"name": "mixed0", "config": {"name": "mixed0", "trainable": true, "axis": 3}, "class_name": "Concatenate", "inbound_nodes": [[["activation_6", 0, 0, {}], ["activation_8", 0, 0, {}], ["activation_11", 0, 0, {}], ["activation_12", 0, 0, {}]]]}, {"name": "conv2d_16", "config": {"trainable": true, "bias_constraint": null, "kernel_size": [1, 1], "activation": "linear", "activity_regularizer": null, "data_format": "channels_last", "kernel_constraint": null, "kernel_regularizer": null, "padding": "same", "bias_regularizer": null, "filters": 64, "bias_initializer": {"config": {}, "class_name": "Zeros"}, "kernel_initializer": {"config": {"seed": null, "scale": 1.0, "mode": "fan_avg", "distribution": "uniform"}, "class_name": "VarianceScaling"}, "dilation_rate": [1, 1], "name": "conv2d_16", "strides": [1, 1], "use_bias": false}, "class_name": "Conv2D", "inbound_nodes": [[["mixed0", 0, 0, {}]]]}, {"name": "batch_normalization_16", "config": {"beta_initializer": {"config": {}, "class_name": "Zeros"}, "beta_constraint": null, "trainable": true, "beta_regularizer": null, "moving_mean_initializer": {"config": {}, "class_name": "Zeros"}, "epsilon": 0.001, "momentum": 0.99, "gamma_regularizer": null, "axis": 3, "center": true, "gamma_constraint": null, "name": "batch_normalization_16", "scale": false, "moving_variance_initializer": {"config": {}, "class_name": "Ones"}, "gamma_initializer": {"config": {}, "class_name": "Ones"}}, "class_name": "BatchNormalization", "inbound_nodes": [[["conv2d_16", 0, 0, {}]]]}, {"name": "activation_16", "config": {"activation": "relu", "name": "activation_16", "trainable": true}, "class_name": "Activation", "inbound_nodes": [[["batch_normalization_16", 0, 0, {}]]]}, {"name": "conv2d_14", "config": {"trainable": true, "bias_constraint": null, "kernel_size": [1, 1], "activation": "linear", "activity_regularizer": null, "data_format": "channels_last", "kernel_constraint": null, "kernel_regularizer": null, "padding": "same", "bias_regularizer": null, "filters": 48, "bias_initializer": {"config": {}, "class_name": "Zeros"}, "kernel_initializer": {"config": {"seed": null, "scale": 1.0, "mode": "fan_avg", "distribution": "uniform"}, "class_name": "VarianceScaling"}, "dilation_rate": [1, 1], "name": "conv2d_14", "strides": [1, 1], "use_bias": false}, "class_name": "Conv2D", "inbound_nodes": [[["mixed0", 0, 0, {}]]]}, {"name": "conv2d_17", "config": {"trainable": true, "bias_constraint": null, "kernel_size": [3, 3], "activation": "linear", "activity_regularizer": null, "data_format": "channels_last", "kernel_constraint": null, "kernel_regularizer": null, "padding": "same", "bias_regularizer": null, "filters": 96, "bias_initializer": {"config": {}, "class_name": "Zeros"}, "kernel_initializer": {"config": {"seed": null, "scale": 1.0, "mode": "fan_avg", "distribution": "uniform"}, "class_name": "VarianceScaling"}, "dilation_rate": [1, 1], "name": "conv2d_17", "strides": [1, 1], "use_bias": false}, "class_name": "Conv2D", "inbound_nodes": [[["activation_16", 0, 0, {}]]]}, {"name": "batch_normalization_14", "config": {"beta_initializer": {"config": {}, "class_name": "Zeros"}, "beta_constraint": null, "trainable": true, "beta_regularizer": null, "moving_mean_initializer": {"config": {}, "class_name": "Zeros"}, "epsilon": 0.001, "momentum": 0.99, "gamma_regularizer": null, "axis": 3, "center": true, "gamma_constraint": null, "name": "batch_normalization_14", "scale": false, "moving_variance_initializer": {"config": {}, "class_name": "Ones"}, "gamma_initializer": {"config": {}, "class_name": "Ones"}}, "class_name": "BatchNormalization", "inbound_nodes": [[["conv2d_14", 0, 0, {}]]]}, {"name": "batch_normalization_17", "config": {"beta_initializer": {"config": {}, "class_name": "Zeros"}, "beta_constraint": null, "trainable": true, "beta_regularizer": null, "moving_mean_initializer": {"config": {}, "class_name": "Zeros"}, "epsilon": 0.001, "momentum": 0.99, "gamma_regularizer": null, "axis": 3, "center": true, "gamma_constraint": null, "name": "batch_normalization_17", "scale": false, "moving_variance_initializer": {"config": {}, "class_name": "Ones"}, "gamma_initializer": {"config": {}, "class_name": "Ones"}}, "class_name": "BatchNormalization", "inbound_nodes": [[["conv2d_17", 0, 0, {}]]]}, {"name": "activation_14", "config": {"activation": "relu", "name": "activation_14", "trainable": true}, "class_name": "Activation", "inbound_nodes": [[["batch_normalization_14", 0, 0, {}]]]}, {"name": "activation_17", "config": {"activation": "relu", "name": "activation_17", "trainable": true}, "class_name": "Activation", "inbound_nodes": [[["batch_normalization_17", 0, 0, {}]]]}, {"name": "average_pooling2d_2", "config": {"padding": "same", "trainable": true, "name": "average_pooling2d_2", "strides": [1, 1], "pool_size": [3, 3], "data_format": "channels_last"}, "class_name": "AveragePooling2D", "inbound_nodes": [[["mixed0", 0, 0, {}]]]}, {"name": "conv2d_13", "config": {"trainable": true, "bias_constraint": null, "kernel_size": [1, 1], "activation": "linear", "activity_regularizer": null, "data_format": "channels_last", "kernel_constraint": null, "kernel_regularizer": null, "padding": "same", "bias_regularizer": null, "filters": 64, "bias_initializer": {"config": {}, "class_name": "Zeros"}, "kernel_initializer": {"config": {"seed": null, "scale": 1.0, "mode": "fan_avg", "distribution": "uniform"}, "class_name": "VarianceScaling"}, "dilation_rate": [1, 1], "name": "conv2d_13", "strides": [1, 1], "use_bias": false}, "class_name": "Conv2D", "inbound_nodes": [[["mixed0", 0, 0, {}]]]}, {"name": "conv2d_15", "config": {"trainable": true, "bias_constraint": null, "kernel_size": [5, 5], "activation": "linear", "activity_regularizer": null, "data_format": "channels_last", "kernel_constraint": null, "kernel_regularizer": null, "padding": "same", "bias_regularizer": null, "filters": 64, "bias_initializer": {"config": {}, "class_name": "Zeros"}, "kernel_initializer": {"config": {"seed": null, "scale": 1.0, "mode": "fan_avg", "distribution": "uniform"}, "class_name": "VarianceScaling"}, "dilation_rate": [1, 1], "name": "conv2d_15", "strides": [1, 1], "use_bias": false}, "class_name": "Conv2D", "inbound_nodes": [[["activation_14", 0, 0, {}]]]}, {"name": "conv2d_18", "config": {"trainable": true, "bias_constraint": null, "kernel_size": [3, 3], "activation": "linear", "activity_regularizer": null, "data_format": "channels_last", "kernel_constraint": null, "kernel_regularizer": null, "padding": "same", "bias_regularizer": null, "filters": 96, "bias_initializer": {"config": {}, "class_name": "Zeros"}, "kernel_initializer": {"config": {"seed": null, "scale": 1.0, "mode": "fan_avg", "distribution": "uniform"}, "class_name": "VarianceScaling"}, "dilation_rate": [1, 1], "name": "conv2d_18", "strides": [1, 1], "use_bias": false}, "class_name": "Conv2D", "inbound_nodes": [[["activation_17", 0, 0, {}]]]}, {"name": "conv2d_19", "config": {"trainable": true, "bias_constraint": null, "kernel_size": [1, 1], "activation": "linear", "activity_regularizer": null, "data_format": "channels_last", "kernel_constraint": null, "kernel_regularizer": null, "padding": "same", "bias_regularizer": null, "filters": 64, "bias_initializer": {"config": {}, "class_name": "Zeros"}, "kernel_initializer": {"config": {"seed": null, "scale": 1.0, "mode": "fan_avg", "distribution": "uniform"}, "class_name": "VarianceScaling"}, "dilation_rate": [1, 1], "name": "conv2d_19", "strides": [1, 1], "use_bias": false}, "class_name": "Conv2D", "inbound_nodes": [[["average_pooling2d_2", 0, 0, {}]]]}, {"name": "batch_normalization_13", "config": {"beta_initializer": {"config": {}, "class_name": "Zeros"}, "beta_constraint": null, "trainable": true, "beta_regularizer": null, "moving_mean_initializer": {"config": {}, "class_name": "Zeros"}, "epsilon": 0.001, "momentum": 0.99, "gamma_regularizer": null, "axis": 3, "center": true, "gamma_constraint": null, "name": "batch_normalization_13", "scale": false, "moving_variance_initializer": {"config": {}, "class_name": "Ones"}, "gamma_initializer": {"config": {}, "class_name": "Ones"}}, "class_name": "BatchNormalization", "inbound_nodes": [[["conv2d_13", 0, 0, {}]]]}, {"name": "batch_normalization_15", "config": {"beta_initializer": {"config": {}, "class_name": "Zeros"}, "beta_constraint": null, "trainable": true, "beta_regularizer": null, "moving_mean_initializer": {"config": {}, "class_name": "Zeros"}, "epsilon": 0.001, "momentum": 0.99, "gamma_regularizer": null, "axis": 3, "center": true, "gamma_constraint": null, "name": "batch_normalization_15", "scale": false, "moving_variance_initializer": {"config": {}, "class_name": "Ones"}, "gamma_initializer": {"config": {}, "class_name": "Ones"}}, "class_name": "BatchNormalization", "inbound_nodes": [[["conv2d_15", 0, 0, {}]]]}, {"name": "batch_normalization_18", "config": {"beta_initializer": {"config": {}, "class_name": "Zeros"}, "beta_constraint": null, "trainable": true, "beta_regularizer": null, "moving_mean_initializer": {"config": {}, "class_name": "Zeros"}, "epsilon": 0.001, "momentum": 0.99, "gamma_regularizer": null, "axis": 3, "center": true, "gamma_constraint": null, "name": "batch_normalization_18", "scale": false, "moving_variance_initializer": {"config": {}, "class_name": "Ones"}, "gamma_initializer": {"config": {}, "class_name": "Ones"}}, "class_name": "BatchNormalization", "inbound_nodes": [[["conv2d_18", 0, 0, {}]]]}, {"name": "batch_normalization_19", "config": {"beta_initializer": {"config": {}, "class_name": "Zeros"}, "beta_constraint": null, "trainable": true, "beta_regularizer": null, "moving_mean_initializer": {"config": {}, "class_name": "Zeros"}, "epsilon": 0.001, "momentum": 0.99, "gamma_regularizer": null, "axis": 3, "center": true, "gamma_constraint": null, "name": "batch_normalization_19", "scale": false, "moving_variance_initializer": {"config": {}, "class_name": "Ones"}, "gamma_initializer": {"config": {}, "class_name": "Ones"}}, "class_name": "BatchNormalization", "inbound_nodes": [[["conv2d_19", 0, 0, {}]]]}, {"name": "activation_13", "config": {"activation": "relu", "name": "activation_13", "trainable": true}, "class_name": "Activation", "inbound_nodes": [[["batch_normalization_13", 0, 0, {}]]]}, {"name": "activation_15", "config": {"activation": "relu", "name": "activation_15", "trainable": true}, "class_name": "Activation", "inbound_nodes": [[["batch_normalization_15", 0, 0, {}]]]}, {"name": "activation_18", "config": {"activation": "relu", "name": "activation_18", "trainable": true}, "class_name": "Activation", "inbound_nodes": [[["batch_normalization_18", 0, 0, {}]]]}, {"name": "activation_19", "config": {"activation": "relu", "name": "activation_19", "trainable": true}, "class_name": "Activation", "inbound_nodes": [[["batch_normalization_19", 0, 0, {}]]]}, {"name": "mixed1", "config": {"name": "mixed1", "trainable": true, "axis": 3}, "class_name": "Concatenate", "inbound_nodes": [[["activation_13", 0, 0, {}], ["activation_15", 0, 0, {}], ["activation_18", 0, 0, {}], ["activation_19", 0, 0, {}]]]}, {"name": "conv2d_23", "config": {"trainable": true, "bias_constraint": null, "kernel_size": [1, 1], "activation": "linear", "activity_regularizer": null, "data_format": "channels_last", "kernel_constraint": null, "kernel_regularizer": null, "padding": "same", "bias_regularizer": null, "filters": 64, "bias_initializer": {"config": {}, "class_name": "Zeros"}, "kernel_initializer": {"config": {"seed": null, "scale": 1.0, "mode": "fan_avg", "distribution": "uniform"}, "class_name": "VarianceScaling"}, "dilation_rate": [1, 1], "name": "conv2d_23", "strides": [1, 1], "use_bias": false}, "class_name": "Conv2D", "inbound_nodes": [[["mixed1", 0, 0, {}]]]}, {"name": "batch_normalization_23", "config": {"beta_initializer": {"config": {}, "class_name": "Zeros"}, "beta_constraint": null, "trainable": true, "beta_regularizer": null, "moving_mean_initializer": {"config": {}, "class_name": "Zeros"}, "epsilon": 0.001, "momentum": 0.99, "gamma_regularizer": null, "axis": 3, "center": true, "gamma_constraint": null, "name": "batch_normalization_23", "scale": false, "moving_variance_initializer": {"config": {}, "class_name": "Ones"}, "gamma_initializer": {"config": {}, "class_name": "Ones"}}, "class_name": "BatchNormalization", "inbound_nodes": [[["conv2d_23", 0, 0, {}]]]}, {"name": "activation_23", "config": {"activation": "relu", "name": "activation_23", "trainable": true}, "class_name": "Activation", "inbound_nodes": [[["batch_normalization_23", 0, 0, {}]]]}, {"name": "conv2d_21", "config": {"trainable": true, "bias_constraint": null, "kernel_size": [1, 1], "activation": "linear", "activity_regularizer": null, "data_format": "channels_last", "kernel_constraint": null, "kernel_regularizer": null, "padding": "same", "bias_regularizer": null, "filters": 48, "bias_initializer": {"config": {}, "class_name": "Zeros"}, "kernel_initializer": {"config": {"seed": null, "scale": 1.0, "mode": "fan_avg", "distribution": "uniform"}, "class_name": "VarianceScaling"}, "dilation_rate": [1, 1], "name": "conv2d_21", "strides": [1, 1], "use_bias": false}, "class_name": "Conv2D", "inbound_nodes": [[["mixed1", 0, 0, {}]]]}, {"name": "conv2d_24", "config": {"trainable": true, "bias_constraint": null, "kernel_size": [3, 3], "activation": "linear", "activity_regularizer": null, "data_format": "channels_last", "kernel_constraint": null, "kernel_regularizer": null, "padding": "same", "bias_regularizer": null, "filters": 96, "bias_initializer": {"config": {}, "class_name": "Zeros"}, "kernel_initializer": {"config": {"seed": null, "scale": 1.0, "mode": "fan_avg", "distribution": "uniform"}, "class_name": "VarianceScaling"}, "dilation_rate": [1, 1], "name": "conv2d_24", "strides": [1, 1], "use_bias": false}, "class_name": "Conv2D", "inbound_nodes": [[["activation_23", 0, 0, {}]]]}, {"name": "batch_normalization_21", "config": {"beta_initializer": {"config": {}, "class_name": "Zeros"}, "beta_constraint": null, "trainable": true, "beta_regularizer": null, "moving_mean_initializer": {"config": {}, "class_name": "Zeros"}, "epsilon": 0.001, "momentum": 0.99, "gamma_regularizer": null, "axis": 3, "center": true, "gamma_constraint": null, "name": "batch_normalization_21", "scale": false, "moving_variance_initializer": {"config": {}, "class_name": "Ones"}, "gamma_initializer": {"config": {}, "class_name": "Ones"}}, "class_name": "BatchNormalization", "inbound_nodes": [[["conv2d_21", 0, 0, {}]]]}, {"name": "batch_normalization_24", "config": {"beta_initializer": {"config": {}, "class_name": "Zeros"}, "beta_constraint": null, "trainable": true, "beta_regularizer": null, "moving_mean_initializer": {"config": {}, "class_name": "Zeros"}, "epsilon": 0.001, "momentum": 0.99, "gamma_regularizer": null, "axis": 3, "center": true, "gamma_constraint": null, "name": "batch_normalization_24", "scale": false, "moving_variance_initializer": {"config": {}, "class_name": "Ones"}, "gamma_initializer": {"config": {}, "class_name": "Ones"}}, "class_name": "BatchNormalization", "inbound_nodes": [[["conv2d_24", 0, 0, {}]]]}, {"name": "activation_21", "config": {"activation": "relu", "name": "activation_21", "trainable": true}, "class_name": "Activation", "inbound_nodes": [[["batch_normalization_21", 0, 0, {}]]]}, {"name": "activation_24", "config": {"activation": "relu", "name": "activation_24", "trainable": true}, "class_name": "Activation", "inbound_nodes": [[["batch_normalization_24", 0, 0, {}]]]}, {"name": "average_pooling2d_3", "config": {"padding": "same", "trainable": true, "name": "average_pooling2d_3", "strides": [1, 1], "pool_size": [3, 3], "data_format": "channels_last"}, "class_name": "AveragePooling2D", "inbound_nodes": [[["mixed1", 0, 0, {}]]]}, {"name": "conv2d_20", "config": {"trainable": true, "bias_constraint": null, "kernel_size": [1, 1], "activation": "linear", "activity_regularizer": null, "data_format": "channels_last", "kernel_constraint": null, "kernel_regularizer": null, "padding": "same", "bias_regularizer": null, "filters": 64, "bias_initializer": {"config": {}, "class_name": "Zeros"}, "kernel_initializer": {"config": {"seed": null, "scale": 1.0, "mode": "fan_avg", "distribution": "uniform"}, "class_name": "VarianceScaling"}, "dilation_rate": [1, 1], "name": "conv2d_20", "strides": [1, 1], "use_bias": false}, "class_name": "Conv2D", "inbound_nodes": [[["mixed1", 0, 0, {}]]]}, {"name": "conv2d_22", "config": {"trainable": true, "bias_constraint": null, "kernel_size": [5, 5], "activation": "linear", "activity_regularizer": null, "data_format": "channels_last", "kernel_constraint": null, "kernel_regularizer": null, "padding": "same", "bias_regularizer": null, "filters": 64, "bias_initializer": {"config": {}, "class_name": "Zeros"}, "kernel_initializer": {"config": {"seed": null, "scale": 1.0, "mode": "fan_avg", "distribution": "uniform"}, "class_name": "VarianceScaling"}, "dilation_rate": [1, 1], "name": "conv2d_22", "strides": [1, 1], "use_bias": false}, "class_name": "Conv2D", "inbound_nodes": [[["activation_21", 0, 0, {}]]]}, {"name": "conv2d_25", "config": {"trainable": true, "bias_constraint": null, "kernel_size": [3, 3], "activation": "linear", "activity_regularizer": null, "data_format": "channels_last", "kernel_constraint": null, "kernel_regularizer": null, "padding": "same", "bias_regularizer": null, "filters": 96, "bias_initializer": {"config": {}, "class_name": "Zeros"}, "kernel_initializer": {"config": {"seed": null, "scale": 1.0, "mode": "fan_avg", "distribution": "uniform"}, "class_name": "VarianceScaling"}, "dilation_rate": [1, 1], "name": "conv2d_25", "strides": [1, 1], "use_bias": false}, "class_name": "Conv2D", "inbound_nodes": [[["activation_24", 0, 0, {}]]]}, {"name": "conv2d_26", "config": {"trainable": true, "bias_constraint": null, "kernel_size": [1, 1], "activation": "linear", "activity_regularizer": null, "data_format": "channels_last", "kernel_constraint": null, "kernel_regularizer": null, "padding": "same", "bias_regularizer": null, "filters": 64, "bias_initializer": {"config": {}, "class_name": "Zeros"}, "kernel_initializer": {"config": {"seed": null, "scale": 1.0, "mode": "fan_avg", "distribution": "uniform"}, "class_name": "VarianceScaling"}, "dilation_rate": [1, 1], "name": "conv2d_26", "strides": [1, 1], "use_bias": false}, "class_name": "Conv2D", "inbound_nodes": [[["average_pooling2d_3", 0, 0, {}]]]}, {"name": "batch_normalization_20", "config": {"beta_initializer": {"config": {}, "class_name": "Zeros"}, "beta_constraint": null, "trainable": true, "beta_regularizer": null, "moving_mean_initializer": {"config": {}, "class_name": "Zeros"}, "epsilon": 0.001, "momentum": 0.99, "gamma_regularizer": null, "axis": 3, "center": true, "gamma_constraint": null, "name": "batch_normalization_20", "scale": false, "moving_variance_initializer": {"config": {}, "class_name": "Ones"}, "gamma_initializer": {"config": {}, "class_name": "Ones"}}, "class_name": "BatchNormalization", "inbound_nodes": [[["conv2d_20", 0, 0, {}]]]}, {"name": "batch_normalization_22", "config": {"beta_initializer": {"config": {}, "class_name": "Zeros"}, "beta_constraint": null, "trainable": true, "beta_regularizer": null, "moving_mean_initializer": {"config": {}, "class_name": "Zeros"}, "epsilon": 0.001, "momentum": 0.99, "gamma_regularizer": null, "axis": 3, "center": true, "gamma_constraint": null, "name": "batch_normalization_22", "scale": false, "moving_variance_initializer": {"config": {}, "class_name": "Ones"}, "gamma_initializer": {"config": {}, "class_name": "Ones"}}, "class_name": "BatchNormalization", "inbound_nodes": [[["conv2d_22", 0, 0, {}]]]}, {"name": "batch_normalization_25", "config": {"beta_initializer": {"config": {}, "class_name": "Zeros"}, "beta_constraint": null, "trainable": true, "beta_regularizer": null, "moving_mean_initializer": {"config": {}, "class_name": "Zeros"}, "epsilon": 0.001, "momentum": 0.99, "gamma_regularizer": null, "axis": 3, "center": true, "gamma_constraint": null, "name": "batch_normalization_25", "scale": false, "moving_variance_initializer": {"config": {}, "class_name": "Ones"}, "gamma_initializer": {"config": {}, "class_name": "Ones"}}, "class_name": "BatchNormalization", "inbound_nodes": [[["conv2d_25", 0, 0, {}]]]}, {"name": "batch_normalization_26", "config": {"beta_initializer": {"config": {}, "class_name": "Zeros"}, "beta_constraint": null, "trainable": true, "beta_regularizer": null, "moving_mean_initializer": {"config": {}, "class_name": "Zeros"}, "epsilon": 0.001, "momentum": 0.99, "gamma_regularizer": null, "axis": 3, "center": true, "gamma_constraint": null, "name": "batch_normalization_26", "scale": false, "moving_variance_initializer": {"config": {}, "class_name": "Ones"}, "gamma_initializer": {"config": {}, "class_name": "Ones"}}, "class_name": "BatchNormalization", "inbound_nodes": [[["conv2d_26", 0, 0, {}]]]}, {"name": "activation_20", "config": {"activation": "relu", "name": "activation_20", "trainable": true}, "class_name": "Activation", "inbound_nodes": [[["batch_normalization_20", 0, 0, {}]]]}, {"name": "activation_22", "config": {"activation": "relu", "name": "activation_22", "trainable": true}, "class_name": "Activation", "inbound_nodes": [[["batch_normalization_22", 0, 0, {}]]]}, {"name": "activation_25", "config": {"activation": "relu", "name": "activation_25", "trainable": true}, "class_name": "Activation", "inbound_nodes": [[["batch_normalization_25", 0, 0, {}]]]}, {"name": "activation_26", "config": {"activation": "relu", "name": "activation_26", "trainable": true}, "class_name": "Activation", "inbound_nodes": [[["batch_normalization_26", 0, 0, {}]]]}, {"name": "mixed2", "config": {"name": "mixed2", "trainable": true, "axis": 3}, "class_name": "Concatenate", "inbound_nodes": [[["activation_20", 0, 0, {}], ["activation_22", 0, 0, {}], ["activation_25", 0, 0, {}], ["activation_26", 0, 0, {}]]]}, {"name": "conv2d_28", "config": {"trainable": true, "bias_constraint": null, "kernel_size": [1, 1], "activation": "linear", "activity_regularizer": null, "data_format": "channels_last", "kernel_constraint": null, "kernel_regularizer": null, "padding": "same", "bias_regularizer": null, "filters": 64, "bias_initializer": {"config": {}, "class_name": "Zeros"}, "kernel_initializer": {"config": {"seed": null, "scale": 1.0, "mode": "fan_avg", "distribution": "uniform"}, "class_name": "VarianceScaling"}, "dilation_rate": [1, 1], "name": "conv2d_28", "strides": [1, 1], "use_bias": false}, "class_name": "Conv2D", "inbound_nodes": [[["mixed2", 0, 0, {}]]]}, {"name": "batch_normalization_28", "config": {"beta_initializer": {"config": {}, "class_name": "Zeros"}, "beta_constraint": null, "trainable": true, "beta_regularizer": null, "moving_mean_initializer": {"config": {}, "class_name": "Zeros"}, "epsilon": 0.001, "momentum": 0.99, "gamma_regularizer": null, "axis": 3, "center": true, "gamma_constraint": null, "name": "batch_normalization_28", "scale": false, "moving_variance_initializer": {"config": {}, "class_name": "Ones"}, "gamma_initializer": {"config": {}, "class_name": "Ones"}}, "class_name": "BatchNormalization", "inbound_nodes": [[["conv2d_28", 0, 0, {}]]]}, {"name": "activation_28", "config": {"activation": "relu", "name": "activation_28", "trainable": true}, "class_name": "Activation", "inbound_nodes": [[["batch_normalization_28", 0, 0, {}]]]}, {"name": "conv2d_29", "config": {"trainable": true, "bias_constraint": null, "kernel_size": [3, 3], "activation": "linear", "activity_regularizer": null, "data_format": "channels_last", "kernel_constraint": null, "kernel_regularizer": null, "padding": "same", "bias_regularizer": null, "filters": 96, "bias_initializer": {"config": {}, "class_name": "Zeros"}, "kernel_initializer": {"config": {"seed": null, "scale": 1.0, "mode": "fan_avg", "distribution": "uniform"}, "class_name": "VarianceScaling"}, "dilation_rate": [1, 1], "name": "conv2d_29", "strides": [1, 1], "use_bias": false}, "class_name": "Conv2D", "inbound_nodes": [[["activation_28", 0, 0, {}]]]}, {"name": "batch_normalization_29", "config": {"beta_initializer": {"config": {}, "class_name": "Zeros"}, "beta_constraint": null, "trainable": true, "beta_regularizer": null, "moving_mean_initializer": {"config": {}, "class_name": "Zeros"}, "epsilon": 0.001, "momentum": 0.99, "gamma_regularizer": null, "axis": 3, "center": true, "gamma_constraint": null, "name": "batch_normalization_29", "scale": false, "moving_variance_initializer": {"config": {}, "class_name": "Ones"}, "gamma_initializer": {"config": {}, "class_name": "Ones"}}, "class_name": "BatchNormalization", "inbound_nodes": [[["conv2d_29", 0, 0, {}]]]}, {"name": "activation_29", "config": {"activation": "relu", "name": "activation_29", "trainable": true}, "class_name": "Activation", "inbound_nodes": [[["batch_normalization_29", 0, 0, {}]]]}, {"name": "conv2d_27", "config": {"trainable": true, "bias_constraint": null, "kernel_size": [3, 3], "activation": "linear", "activity_regularizer": null, "data_format": "channels_last", "kernel_constraint": null, "kernel_regularizer": null, "padding": "valid", "bias_regularizer": null, "filters": 384, "bias_initializer": {"config": {}, "class_name": "Zeros"}, "kernel_initializer": {"config": {"seed": null, "scale": 1.0, "mode": "fan_avg", "distribution": "uniform"}, "class_name": "VarianceScaling"}, "dilation_rate": [1, 1], "name": "conv2d_27", "strides": [2, 2], "use_bias": false}, "class_name": "Conv2D", "inbound_nodes": [[["mixed2", 0, 0, {}]]]}, {"name": "conv2d_30", "config": {"trainable": true, "bias_constraint": null, "kernel_size": [3, 3], "activation": "linear", "activity_regularizer": null, "data_format": "channels_last", "kernel_constraint": null, "kernel_regularizer": null, "padding": "valid", "bias_regularizer": null, "filters": 96, "bias_initializer": {"config": {}, "class_name": "Zeros"}, "kernel_initializer": {"config": {"seed": null, "scale": 1.0, "mode": "fan_avg", "distribution": "uniform"}, "class_name": "VarianceScaling"}, "dilation_rate": [1, 1], "name": "conv2d_30", "strides": [2, 2], "use_bias": false}, "class_name": "Conv2D", "inbound_nodes": [[["activation_29", 0, 0, {}]]]}, {"name": "batch_normalization_27", "config": {"beta_initializer": {"config": {}, "class_name": "Zeros"}, "beta_constraint": null, "trainable": true, "beta_regularizer": null, "moving_mean_initializer": {"config": {}, "class_name": "Zeros"}, "epsilon": 0.001, "momentum": 0.99, "gamma_regularizer": null, "axis": 3, "center": true, "gamma_constraint": null, "name": "batch_normalization_27", "scale": false, "moving_variance_initializer": {"config": {}, "class_name": "Ones"}, "gamma_initializer": {"config": {}, "class_name": "Ones"}}, "class_name": "BatchNormalization", "inbound_nodes": [[["conv2d_27", 0, 0, {}]]]}, {"name": "batch_normalization_30", "config": {"beta_initializer": {"config": {}, "class_name": "Zeros"}, "beta_constraint": null, "trainable": true, "beta_regularizer": null, "moving_mean_initializer": {"config": {}, "class_name": "Zeros"}, "epsilon": 0.001, "momentum": 0.99, "gamma_regularizer": null, "axis": 3, "center": true, "gamma_constraint": null, "name": "batch_normalization_30", "scale": false, "moving_variance_initializer": {"config": {}, "class_name": "Ones"}, "gamma_initializer": {"config": {}, "class_name": "Ones"}}, "class_name": "BatchNormalization", "inbound_nodes": [[["conv2d_30", 0, 0, {}]]]}, {"name": "activation_27", "config": {"activation": "relu", "name": "activation_27", "trainable": true}, "class_name": "Activation", "inbound_nodes": [[["batch_normalization_27", 0, 0, {}]]]}, {"name": "activation_30", "config": {"activation": "relu", "name": "activation_30", "trainable": true}, "class_name": "Activation", "inbound_nodes": [[["batch_normalization_30", 0, 0, {}]]]}, {"name": "max_pooling2d_3", "config": {"padding": "valid", "trainable": true, "name": "max_pooling2d_3", "strides": [2, 2], "pool_size": [3, 3], "data_format": "channels_last"}, "class_name": "MaxPooling2D", "inbound_nodes": [[["mixed2", 0, 0, {}]]]}, {"name": "mixed3", "config": {"name": "mixed3", "trainable": true, "axis": 3}, "class_name": "Concatenate", "inbound_nodes": [[["activation_27", 0, 0, {}], ["activation_30", 0, 0, {}], ["max_pooling2d_3", 0, 0, {}]]]}, {"name": "conv2d_35", "config": {"trainable": true, "bias_constraint": null, "kernel_size": [1, 1], "activation": "linear", "activity_regularizer": null, "data_format": "channels_last", "kernel_constraint": null, "kernel_regularizer": null, "padding": "same", "bias_regularizer": null, "filters": 128, "bias_initializer": {"config": {}, "class_name": "Zeros"}, "kernel_initializer": {"config": {"seed": null, "scale": 1.0, "mode": "fan_avg", "distribution": "uniform"}, "class_name": "VarianceScaling"}, "dilation_rate": [1, 1], "name": "conv2d_35", "strides": [1, 1], "use_bias": false}, "class_name": "Conv2D", "inbound_nodes": [[["mixed3", 0, 0, {}]]]}, {"name": "batch_normalization_35", "config": {"beta_initializer": {"config": {}, "class_name": "Zeros"}, "beta_constraint": null, "trainable": true, "beta_regularizer": null, "moving_mean_initializer": {"config": {}, "class_name": "Zeros"}, "epsilon": 0.001, "momentum": 0.99, "gamma_regularizer": null, "axis": 3, "center": true, "gamma_constraint": null, "name": "batch_normalization_35", "scale": false, "moving_variance_initializer": {"config": {}, "class_name": "Ones"}, "gamma_initializer": {"config": {}, "class_name": "Ones"}}, "class_name": "BatchNormalization", "inbound_nodes": [[["conv2d_35", 0, 0, {}]]]}, {"name": "activation_35", "config": {"activation": "relu", "name": "activation_35", "trainable": true}, "class_name": "Activation", "inbound_nodes": [[["batch_normalization_35", 0, 0, {}]]]}, {"name": "conv2d_36", "config": {"trainable": true, "bias_constraint": null, "kernel_size": [7, 1], "activation": "linear", "activity_regularizer": null, "data_format": "channels_last", "kernel_constraint": null, "kernel_regularizer": null, "padding": "same", "bias_regularizer": null, "filters": 128, "bias_initializer": {"config": {}, "class_name": "Zeros"}, "kernel_initializer": {"config": {"seed": null, "scale": 1.0, "mode": "fan_avg", "distribution": "uniform"}, "class_name": "VarianceScaling"}, "dilation_rate": [1, 1], "name": "conv2d_36", "strides": [1, 1], "use_bias": false}, "class_name": "Conv2D", "inbound_nodes": [[["activation_35", 0, 0, {}]]]}, {"name": "batch_normalization_36", "config": {"beta_initializer": {"config": {}, "class_name": "Zeros"}, "beta_constraint": null, "trainable": true, "beta_regularizer": null, "moving_mean_initializer": {"config": {}, "class_name": "Zeros"}, "epsilon": 0.001, "momentum": 0.99, "gamma_regularizer": null, "axis": 3, "center": true, "gamma_constraint": null, "name": "batch_normalization_36", "scale": false, "moving_variance_initializer": {"config": {}, "class_name": "Ones"}, "gamma_initializer": {"config": {}, "class_name": "Ones"}}, "class_name": "BatchNormalization", "inbound_nodes": [[["conv2d_36", 0, 0, {}]]]}, {"name": "activation_36", "config": {"activation": "relu", "name": "activation_36", "trainable": true}, "class_name": "Activation", "inbound_nodes": [[["batch_normalization_36", 0, 0, {}]]]}, {"name": "conv2d_32", "config": {"trainable": true, "bias_constraint": null, "kernel_size": [1, 1], "activation": "linear", "activity_regularizer": null, "data_format": "channels_last", "kernel_constraint": null, "kernel_regularizer": null, "padding": "same", "bias_regularizer": null, "filters": 128, "bias_initializer": {"config": {}, "class_name": "Zeros"}, "kernel_initializer": {"config": {"seed": null, "scale": 1.0, "mode": "fan_avg", "distribution": "uniform"}, "class_name": "VarianceScaling"}, "dilation_rate": [1, 1], "name": "conv2d_32", "strides": [1, 1], "use_bias": false}, "class_name": "Conv2D", "inbound_nodes": [[["mixed3", 0, 0, {}]]]}, {"name": "conv2d_37", "config": {"trainable": true, "bias_constraint": null, "kernel_size": [1, 7], "activation": "linear", "activity_regularizer": null, "data_format": "channels_last", "kernel_constraint": null, "kernel_regularizer": null, "padding": "same", "bias_regularizer": null, "filters": 128, "bias_initializer": {"config": {}, "class_name": "Zeros"}, "kernel_initializer": {"config": {"seed": null, "scale": 1.0, "mode": "fan_avg", "distribution": "uniform"}, "class_name": "VarianceScaling"}, "dilation_rate": [1, 1], "name": "conv2d_37", "strides": [1, 1], "use_bias": false}, "class_name": "Conv2D", "inbound_nodes": [[["activation_36", 0, 0, {}]]]}, {"name": "batch_normalization_32", "config": {"beta_initializer": {"config": {}, "class_name": "Zeros"}, "beta_constraint": null, "trainable": true, "beta_regularizer": null, "moving_mean_initializer": {"config": {}, "class_name": "Zeros"}, "epsilon": 0.001, "momentum": 0.99, "gamma_regularizer": null, "axis": 3, "center": true, "gamma_constraint": null, "name": "batch_normalization_32", "scale": false, "moving_variance_initializer": {"config": {}, "class_name": "Ones"}, "gamma_initializer": {"config": {}, "class_name": "Ones"}}, "class_name": "BatchNormalization", "inbound_nodes": [[["conv2d_32", 0, 0, {}]]]}, {"name": "batch_normalization_37", "config": {"beta_initializer": {"config": {}, "class_name": "Zeros"}, "beta_constraint": null, "trainable": true, "beta_regularizer": null, "moving_mean_initializer": {"config": {}, "class_name": "Zeros"}, "epsilon": 0.001, "momentum": 0.99, "gamma_regularizer": null, "axis": 3, "center": true, "gamma_constraint": null, "name": "batch_normalization_37", "scale": false, "moving_variance_initializer": {"config": {}, "class_name": "Ones"}, "gamma_initializer": {"config": {}, "class_name": "Ones"}}, "class_name": "BatchNormalization", "inbound_nodes": [[["conv2d_37", 0, 0, {}]]]}, {"name": "activation_32", "config": {"activation": "relu", "name": "activation_32", "trainable": true}, "class_name": "Activation", "inbound_nodes": [[["batch_normalization_32", 0, 0, {}]]]}, {"name": "activation_37", "config": {"activation": "relu", "name": "activation_37", "trainable": true}, "class_name": "Activation", "inbound_nodes": [[["batch_normalization_37", 0, 0, {}]]]}, {"name": "conv2d_33", "config": {"trainable": true, "bias_constraint": null, "kernel_size": [1, 7], "activation": "linear", "activity_regularizer": null, "data_format": "channels_last", "kernel_constraint": null, "kernel_regularizer": null, "padding": "same", "bias_regularizer": null, "filters": 128, "bias_initializer": {"config": {}, "class_name": "Zeros"}, "kernel_initializer": {"config": {"seed": null, "scale": 1.0, "mode": "fan_avg", "distribution": "uniform"}, "class_name": "VarianceScaling"}, "dilation_rate": [1, 1], "name": "conv2d_33", "strides": [1, 1], "use_bias": false}, "class_name": "Conv2D", "inbound_nodes": [[["activation_32", 0, 0, {}]]]}, {"name": "conv2d_38", "config": {"trainable": true, "bias_constraint": null, "kernel_size": [7, 1], "activation": "linear", "activity_regularizer": null, "data_format": "channels_last", "kernel_constraint": null, "kernel_regularizer": null, "padding": "same", "bias_regularizer": null, "filters": 128, "bias_initializer": {"config": {}, "class_name": "Zeros"}, "kernel_initializer": {"config": {"seed": null, "scale": 1.0, "mode": "fan_avg", "distribution": "uniform"}, "class_name": "VarianceScaling"}, "dilation_rate": [1, 1], "name": "conv2d_38", "strides": [1, 1], "use_bias": false}, "class_name": "Conv2D", "inbound_nodes": [[["activation_37", 0, 0, {}]]]}, {"name": "batch_normalization_33", "config": {"beta_initializer": {"config": {}, "class_name": "Zeros"}, "beta_constraint": null, "trainable": true, "beta_regularizer": null, "moving_mean_initializer": {"config": {}, "class_name": "Zeros"}, "epsilon": 0.001, "momentum": 0.99, "gamma_regularizer": null, "axis": 3, "center": true, "gamma_constraint": null, "name": "batch_normalization_33", "scale": false, "moving_variance_initializer": {"config": {}, "class_name": "Ones"}, "gamma_initializer": {"config": {}, "class_name": "Ones"}}, "class_name": "BatchNormalization", "inbound_nodes": [[["conv2d_33", 0, 0, {}]]]}, {"name": "batch_normalization_38", "config": {"beta_initializer": {"config": {}, "class_name": "Zeros"}, "beta_constraint": null, "trainable": true, "beta_regularizer": null, "moving_mean_initializer": {"config": {}, "class_name": "Zeros"}, "epsilon": 0.001, "momentum": 0.99, "gamma_regularizer": null, "axis": 3, "center": true, "gamma_constraint": null, "name": "batch_normalization_38", "scale": false, "moving_variance_initializer": {"config": {}, "class_name": "Ones"}, "gamma_initializer": {"config": {}, "class_name": "Ones"}}, "class_name": "BatchNormalization", "inbound_nodes": [[["conv2d_38", 0, 0, {}]]]}, {"name": "activation_33", "config": {"activation": "relu", "name": "activation_33", "trainable": true}, "class_name": "Activation", "inbound_nodes": [[["batch_normalization_33", 0, 0, {}]]]}, {"name": "activation_38", "config": {"activation": "relu", "name": "activation_38", "trainable": true}, "class_name": "Activation", "inbound_nodes": [[["batch_normalization_38", 0, 0, {}]]]}, {"name": "average_pooling2d_4", "config": {"padding": "same", "trainable": true, "name": "average_pooling2d_4", "strides": [1, 1], "pool_size": [3, 3], "data_format": "channels_last"}, "class_name": "AveragePooling2D", "inbound_nodes": [[["mixed3", 0, 0, {}]]]}, {"name": "conv2d_31", "config": {"trainable": true, "bias_constraint": null, "kernel_size": [1, 1], "activation": "linear", "activity_regularizer": null, "data_format": "channels_last", "kernel_constraint": null, "kernel_regularizer": null, "padding": "same", "bias_regularizer": null, "filters": 192, "bias_initializer": {"config": {}, "class_name": "Zeros"}, "kernel_initializer": {"config": {"seed": null, "scale": 1.0, "mode": "fan_avg", "distribution": "uniform"}, "class_name": "VarianceScaling"}, "dilation_rate": [1, 1], "name": "conv2d_31", "strides": [1, 1], "use_bias": false}, "class_name": "Conv2D", "inbound_nodes": [[["mixed3", 0, 0, {}]]]}, {"name": "conv2d_34", "config": {"trainable": true, "bias_constraint": null, "kernel_size": [7, 1], "activation": "linear", "activity_regularizer": null, "data_format": "channels_last", "kernel_constraint": null, "kernel_regularizer": null, "padding": "same", "bias_regularizer": null, "filters": 192, "bias_initializer": {"config": {}, "class_name": "Zeros"}, "kernel_initializer": {"config": {"seed": null, "scale": 1.0, "mode": "fan_avg", "distribution": "uniform"}, "class_name": "VarianceScaling"}, "dilation_rate": [1, 1], "name": "conv2d_34", "strides": [1, 1], "use_bias": false}, "class_name": "Conv2D", "inbound_nodes": [[["activation_33", 0, 0, {}]]]}, {"name": "conv2d_39", "config": {"trainable": true, "bias_constraint": null, "kernel_size": [1, 7], "activation": "linear", "activity_regularizer": null, "data_format": "channels_last", "kernel_constraint": null, "kernel_regularizer": null, "padding": "same", "bias_regularizer": null, "filters": 192, "bias_initializer": {"config": {}, "class_name": "Zeros"}, "kernel_initializer": {"config": {"seed": null, "scale": 1.0, "mode": "fan_avg", "distribution": "uniform"}, "class_name": "VarianceScaling"}, "dilation_rate": [1, 1], "name": "conv2d_39", "strides": [1, 1], "use_bias": false}, "class_name": "Conv2D", "inbound_nodes": [[["activation_38", 0, 0, {}]]]}, {"name": "conv2d_40", "config": {"trainable": true, "bias_constraint": null, "kernel_size": [1, 1], "activation": "linear", "activity_regularizer": null, "data_format": "channels_last", "kernel_constraint": null, "kernel_regularizer": null, "padding": "same", "bias_regularizer": null, "filters": 192, "bias_initializer": {"config": {}, "class_name": "Zeros"}, "kernel_initializer": {"config": {"seed": null, "scale": 1.0, "mode": "fan_avg", "distribution": "uniform"}, "class_name": "VarianceScaling"}, "dilation_rate": [1, 1], "name": "conv2d_40", "strides": [1, 1], "use_bias": false}, "class_name": "Conv2D", "inbound_nodes": [[["average_pooling2d_4", 0, 0, {}]]]}, {"name": "batch_normalization_31", "config": {"beta_initializer": {"config": {}, "class_name": "Zeros"}, "beta_constraint": null, "trainable": true, "beta_regularizer": null, "moving_mean_initializer": {"config": {}, "class_name": "Zeros"}, "epsilon": 0.001, "momentum": 0.99, "gamma_regularizer": null, "axis": 3, "center": true, "gamma_constraint": null, "name": "batch_normalization_31", "scale": false, "moving_variance_initializer": {"config": {}, "class_name": "Ones"}, "gamma_initializer": {"config": {}, "class_name": "Ones"}}, "class_name": "BatchNormalization", "inbound_nodes": [[["conv2d_31", 0, 0, {}]]]}, {"name": "batch_normalization_34", "config": {"beta_initializer": {"config": {}, "class_name": "Zeros"}, "beta_constraint": null, "trainable": true, "beta_regularizer": null, "moving_mean_initializer": {"config": {}, "class_name": "Zeros"}, "epsilon": 0.001, "momentum": 0.99, "gamma_regularizer": null, "axis": 3, "center": true, "gamma_constraint": null, "name": "batch_normalization_34", "scale": false, "moving_variance_initializer": {"config": {}, "class_name": "Ones"}, "gamma_initializer": {"config": {}, "class_name": "Ones"}}, "class_name": "BatchNormalization", "inbound_nodes": [[["conv2d_34", 0, 0, {}]]]}, {"name": "batch_normalization_39", "config": {"beta_initializer": {"config": {}, "class_name": "Zeros"}, "beta_constraint": null, "trainable": true, "beta_regularizer": null, "moving_mean_initializer": {"config": {}, "class_name": "Zeros"}, "epsilon": 0.001, "momentum": 0.99, "gamma_regularizer": null, "axis": 3, "center": true, "gamma_constraint": null, "name": "batch_normalization_39", "scale": false, "moving_variance_initializer": {"config": {}, "class_name": "Ones"}, "gamma_initializer": {"config": {}, "class_name": "Ones"}}, "class_name": "BatchNormalization", "inbound_nodes": [[["conv2d_39", 0, 0, {}]]]}, {"name": "batch_normalization_40", "config": {"beta_initializer": {"config": {}, "class_name": "Zeros"}, "beta_constraint": null, "trainable": true, "beta_regularizer": null, "moving_mean_initializer": {"config": {}, "class_name": "Zeros"}, "epsilon": 0.001, "momentum": 0.99, "gamma_regularizer": null, "axis": 3, "center": true, "gamma_constraint": null, "name": "batch_normalization_40", "scale": false, "moving_variance_initializer": {"config": {}, "class_name": "Ones"}, "gamma_initializer": {"config": {}, "class_name": "Ones"}}, "class_name": "BatchNormalization", "inbound_nodes": [[["conv2d_40", 0, 0, {}]]]}, {"name": "activation_31", "config": {"activation": "relu", "name": "activation_31", "trainable": true}, "class_name": "Activation", "inbound_nodes": [[["batch_normalization_31", 0, 0, {}]]]}, {"name": "activation_34", "config": {"activation": "relu", "name": "activation_34", "trainable": true}, "class_name": "Activation", "inbound_nodes": [[["batch_normalization_34", 0, 0, {}]]]}, {"name": "activation_39", "config": {"activation": "relu", "name": "activation_39", "trainable": true}, "class_name": "Activation", "inbound_nodes": [[["batch_normalization_39", 0, 0, {}]]]}, {"name": "activation_40", "config": {"activation": "relu", "name": "activation_40", "trainable": true}, "class_name": "Activation", "inbound_nodes": [[["batch_normalization_40", 0, 0, {}]]]}, {"name": "mixed4", "config": {"name": "mixed4", "trainable": true, "axis": 3}, "class_name": "Concatenate", "inbound_nodes": [[["activation_31", 0, 0, {}], ["activation_34", 0, 0, {}], ["activation_39", 0, 0, {}], ["activation_40", 0, 0, {}]]]}, {"name": "conv2d_45", "config": {"trainable": true, "bias_constraint": null, "kernel_size": [1, 1], "activation": "linear", "activity_regularizer": null, "data_format": "channels_last", "kernel_constraint": null, "kernel_regularizer": null, "padding": "same", "bias_regularizer": null, "filters": 160, "bias_initializer": {"config": {}, "class_name": "Zeros"}, "kernel_initializer": {"config": {"seed": null, "scale": 1.0, "mode": "fan_avg", "distribution": "uniform"}, "class_name": "VarianceScaling"}, "dilation_rate": [1, 1], "name": "conv2d_45", "strides": [1, 1], "use_bias": false}, "class_name": "Conv2D", "inbound_nodes": [[["mixed4", 0, 0, {}]]]}, {"name": "batch_normalization_45", "config": {"beta_initializer": {"config": {}, "class_name": "Zeros"}, "beta_constraint": null, "trainable": true, "beta_regularizer": null, "moving_mean_initializer": {"config": {}, "class_name": "Zeros"}, "epsilon": 0.001, "momentum": 0.99, "gamma_regularizer": null, "axis": 3, "center": true, "gamma_constraint": null, "name": "batch_normalization_45", "scale": false, "moving_variance_initializer": {"config": {}, "class_name": "Ones"}, "gamma_initializer": {"config": {}, "class_name": "Ones"}}, "class_name": "BatchNormalization", "inbound_nodes": [[["conv2d_45", 0, 0, {}]]]}, {"name": "activation_45", "config": {"activation": "relu", "name": "activation_45", "trainable": true}, "class_name": "Activation", "inbound_nodes": [[["batch_normalization_45", 0, 0, {}]]]}, {"name": "conv2d_46", "config": {"trainable": true, "bias_constraint": null, "kernel_size": [7, 1], "activation": "linear", "activity_regularizer": null, "data_format": "channels_last", "kernel_constraint": null, "kernel_regularizer": null, "padding": "same", "bias_regularizer": null, "filters": 160, "bias_initializer": {"config": {}, "class_name": "Zeros"}, "kernel_initializer": {"config": {"seed": null, "scale": 1.0, "mode": "fan_avg", "distribution": "uniform"}, "class_name": "VarianceScaling"}, "dilation_rate": [1, 1], "name": "conv2d_46", "strides": [1, 1], "use_bias": false}, "class_name": "Conv2D", "inbound_nodes": [[["activation_45", 0, 0, {}]]]}, {"name": "batch_normalization_46", "config": {"beta_initializer": {"config": {}, "class_name": "Zeros"}, "beta_constraint": null, "trainable": true, "beta_regularizer": null, "moving_mean_initializer": {"config": {}, "class_name": "Zeros"}, "epsilon": 0.001, "momentum": 0.99, "gamma_regularizer": null, "axis": 3, "center": true, "gamma_constraint": null, "name": "batch_normalization_46", "scale": false, "moving_variance_initializer": {"config": {}, "class_name": "Ones"}, "gamma_initializer": {"config": {}, "class_name": "Ones"}}, "class_name": "BatchNormalization", "inbound_nodes": [[["conv2d_46", 0, 0, {}]]]}, {"name": "activation_46", "config": {"activation": "relu", "name": "activation_46", "trainable": true}, "class_name": "Activation", "inbound_nodes": [[["batch_normalization_46", 0, 0, {}]]]}, {"name": "conv2d_42", "config": {"trainable": true, "bias_constraint": null, "kernel_size": [1, 1], "activation": "linear", "activity_regularizer": null, "data_format": "channels_last", "kernel_constraint": null, "kernel_regularizer": null, "padding": "same", "bias_regularizer": null, "filters": 160, "bias_initializer": {"config": {}, "class_name": "Zeros"}, "kernel_initializer": {"config": {"seed": null, "scale": 1.0, "mode": "fan_avg", "distribution": "uniform"}, "class_name": "VarianceScaling"}, "dilation_rate": [1, 1], "name": "conv2d_42", "strides": [1, 1], "use_bias": false}, "class_name": "Conv2D", "inbound_nodes": [[["mixed4", 0, 0, {}]]]}, {"name": "conv2d_47", "config": {"trainable": true, "bias_constraint": null, "kernel_size": [1, 7], "activation": "linear", "activity_regularizer": null, "data_format": "channels_last", "kernel_constraint": null, "kernel_regularizer": null, "padding": "same", "bias_regularizer": null, "filters": 160, "bias_initializer": {"config": {}, "class_name": "Zeros"}, "kernel_initializer": {"config": {"seed": null, "scale": 1.0, "mode": "fan_avg", "distribution": "uniform"}, "class_name": "VarianceScaling"}, "dilation_rate": [1, 1], "name": "conv2d_47", "strides": [1, 1], "use_bias": false}, "class_name": "Conv2D", "inbound_nodes": [[["activation_46", 0, 0, {}]]]}, {"name": "batch_normalization_42", "config": {"beta_initializer": {"config": {}, "class_name": "Zeros"}, "beta_constraint": null, "trainable": true, "beta_regularizer": null, "moving_mean_initializer": {"config": {}, "class_name": "Zeros"}, "epsilon": 0.001, "momentum": 0.99, "gamma_regularizer": null, "axis": 3, "center": true, "gamma_constraint": null, "name": "batch_normalization_42", "scale": false, "moving_variance_initializer": {"config": {}, "class_name": "Ones"}, "gamma_initializer": {"config": {}, "class_name": "Ones"}}, "class_name": "BatchNormalization", "inbound_nodes": [[["conv2d_42", 0, 0, {}]]]}, {"name": "batch_normalization_47", "config": {"beta_initializer": {"config": {}, "class_name": "Zeros"}, "beta_constraint": null, "trainable": true, "beta_regularizer": null, "moving_mean_initializer": {"config": {}, "class_name": "Zeros"}, "epsilon": 0.001, "momentum": 0.99, "gamma_regularizer": null, "axis": 3, "center": true, "gamma_constraint": null, "name": "batch_normalization_47", "scale": false, "moving_variance_initializer": {"config": {}, "class_name": "Ones"}, "gamma_initializer": {"config": {}, "class_name": "Ones"}}, "class_name": "BatchNormalization", "inbound_nodes": [[["conv2d_47", 0, 0, {}]]]}, {"name": "activation_42", "config": {"activation": "relu", "name": "activation_42", "trainable": true}, "class_name": "Activation", "inbound_nodes": [[["batch_normalization_42", 0, 0, {}]]]}, {"name": "activation_47", "config": {"activation": "relu", "name": "activation_47", "trainable": true}, "class_name": "Activation", "inbound_nodes": [[["batch_normalization_47", 0, 0, {}]]]}, {"name": "conv2d_43", "config": {"trainable": true, "bias_constraint": null, "kernel_size": [1, 7], "activation": "linear", "activity_regularizer": null, "data_format": "channels_last", "kernel_constraint": null, "kernel_regularizer": null, "padding": "same", "bias_regularizer": null, "filters": 160, "bias_initializer": {"config": {}, "class_name": "Zeros"}, "kernel_initializer": {"config": {"seed": null, "scale": 1.0, "mode": "fan_avg", "distribution": "uniform"}, "class_name": "VarianceScaling"}, "dilation_rate": [1, 1], "name": "conv2d_43", "strides": [1, 1], "use_bias": false}, "class_name": "Conv2D", "inbound_nodes": [[["activation_42", 0, 0, {}]]]}, {"name": "conv2d_48", "config": {"trainable": true, "bias_constraint": null, "kernel_size": [7, 1], "activation": "linear", "activity_regularizer": null, "data_format": "channels_last", "kernel_constraint": null, "kernel_regularizer": null, "padding": "same", "bias_regularizer": null, "filters": 160, "bias_initializer": {"config": {}, "class_name": "Zeros"}, "kernel_initializer": {"config": {"seed": null, "scale": 1.0, "mode": "fan_avg", "distribution": "uniform"}, "class_name": "VarianceScaling"}, "dilation_rate": [1, 1], "name": "conv2d_48", "strides": [1, 1], "use_bias": false}, "class_name": "Conv2D", "inbound_nodes": [[["activation_47", 0, 0, {}]]]}, {"name": "batch_normalization_43", "config": {"beta_initializer": {"config": {}, "class_name": "Zeros"}, "beta_constraint": null, "trainable": true, "beta_regularizer": null, "moving_mean_initializer": {"config": {}, "class_name": "Zeros"}, "epsilon": 0.001, "momentum": 0.99, "gamma_regularizer": null, "axis": 3, "center": true, "gamma_constraint": null, "name": "batch_normalization_43", "scale": false, "moving_variance_initializer": {"config": {}, "class_name": "Ones"}, "gamma_initializer": {"config": {}, "class_name": "Ones"}}, "class_name": "BatchNormalization", "inbound_nodes": [[["conv2d_43", 0, 0, {}]]]}, {"name": "batch_normalization_48", "config": {"beta_initializer": {"config": {}, "class_name": "Zeros"}, "beta_constraint": null, "trainable": true, "beta_regularizer": null, "moving_mean_initializer": {"config": {}, "class_name": "Zeros"}, "epsilon": 0.001, "momentum": 0.99, "gamma_regularizer": null, "axis": 3, "center": true, "gamma_constraint": null, "name": "batch_normalization_48", "scale": false, "moving_variance_initializer": {"config": {}, "class_name": "Ones"}, "gamma_initializer": {"config": {}, "class_name": "Ones"}}, "class_name": "BatchNormalization", "inbound_nodes": [[["conv2d_48", 0, 0, {}]]]}, {"name": "activation_43", "config": {"activation": "relu", "name": "activation_43", "trainable": true}, "class_name": "Activation", "inbound_nodes": [[["batch_normalization_43", 0, 0, {}]]]}, {"name": "activation_48", "config": {"activation": "relu", "name": "activation_48", "trainable": true}, "class_name": "Activation", "inbound_nodes": [[["batch_normalization_48", 0, 0, {}]]]}, {"name": "average_pooling2d_5", "config": {"padding": "same", "trainable": true, "name": "average_pooling2d_5", "strides": [1, 1], "pool_size": [3, 3], "data_format": "channels_last"}, "class_name": "AveragePooling2D", "inbound_nodes": [[["mixed4", 0, 0, {}]]]}, {"name": "conv2d_41", "config": {"trainable": true, "bias_constraint": null, "kernel_size": [1, 1], "activation": "linear", "activity_regularizer": null, "data_format": "channels_last", "kernel_constraint": null, "kernel_regularizer": null, "padding": "same", "bias_regularizer": null, "filters": 192, "bias_initializer": {"config": {}, "class_name": "Zeros"}, "kernel_initializer": {"config": {"seed": null, "scale": 1.0, "mode": "fan_avg", "distribution": "uniform"}, "class_name": "VarianceScaling"}, "dilation_rate": [1, 1], "name": "conv2d_41", "strides": [1, 1], "use_bias": false}, "class_name": "Conv2D", "inbound_nodes": [[["mixed4", 0, 0, {}]]]}, {"name": "conv2d_44", "config": {"trainable": true, "bias_constraint": null, "kernel_size": [7, 1], "activation": "linear", "activity_regularizer": null, "data_format": "channels_last", "kernel_constraint": null, "kernel_regularizer": null, "padding": "same", "bias_regularizer": null, "filters": 192, "bias_initializer": {"config": {}, "class_name": "Zeros"}, "kernel_initializer": {"config": {"seed": null, "scale": 1.0, "mode": "fan_avg", "distribution": "uniform"}, "class_name": "VarianceScaling"}, "dilation_rate": [1, 1], "name": "conv2d_44", "strides": [1, 1], "use_bias": false}, "class_name": "Conv2D", "inbound_nodes": [[["activation_43", 0, 0, {}]]]}, {"name": "conv2d_49", "config": {"trainable": true, "bias_constraint": null, "kernel_size": [1, 7], "activation": "linear", "activity_regularizer": null, "data_format": "channels_last", "kernel_constraint": null, "kernel_regularizer": null, "padding": "same", "bias_regularizer": null, "filters": 192, "bias_initializer": {"config": {}, "class_name": "Zeros"}, "kernel_initializer": {"config": {"seed": null, "scale": 1.0, "mode": "fan_avg", "distribution": "uniform"}, "class_name": "VarianceScaling"}, "dilation_rate": [1, 1], "name": "conv2d_49", "strides": [1, 1], "use_bias": false}, "class_name": "Conv2D", "inbound_nodes": [[["activation_48", 0, 0, {}]]]}, {"name": "conv2d_50", "config": {"trainable": true, "bias_constraint": null, "kernel_size": [1, 1], "activation": "linear", "activity_regularizer": null, "data_format": "channels_last", "kernel_constraint": null, "kernel_regularizer": null, "padding": "same", "bias_regularizer": null, "filters": 192, "bias_initializer": {"config": {}, "class_name": "Zeros"}, "kernel_initializer": {"config": {"seed": null, "scale": 1.0, "mode": "fan_avg", "distribution": "uniform"}, "class_name": "VarianceScaling"}, "dilation_rate": [1, 1], "name": "conv2d_50", "strides": [1, 1], "use_bias": false}, "class_name": "Conv2D", "inbound_nodes": [[["average_pooling2d_5", 0, 0, {}]]]}, {"name": "batch_normalization_41", "config": {"beta_initializer": {"config": {}, "class_name": "Zeros"}, "beta_constraint": null, "trainable": true, "beta_regularizer": null, "moving_mean_initializer": {"config": {}, "class_name": "Zeros"}, "epsilon": 0.001, "momentum": 0.99, "gamma_regularizer": null, "axis": 3, "center": true, "gamma_constraint": null, "name": "batch_normalization_41", "scale": false, "moving_variance_initializer": {"config": {}, "class_name": "Ones"}, "gamma_initializer": {"config": {}, "class_name": "Ones"}}, "class_name": "BatchNormalization", "inbound_nodes": [[["conv2d_41", 0, 0, {}]]]}, {"name": "batch_normalization_44", "config": {"beta_initializer": {"config": {}, "class_name": "Zeros"}, "beta_constraint": null, "trainable": true, "beta_regularizer": null, "moving_mean_initializer": {"config": {}, "class_name": "Zeros"}, "epsilon": 0.001, "momentum": 0.99, "gamma_regularizer": null, "axis": 3, "center": true, "gamma_constraint": null, "name": "batch_normalization_44", "scale": false, "moving_variance_initializer": {"config": {}, "class_name": "Ones"}, "gamma_initializer": {"config": {}, "class_name": "Ones"}}, "class_name": "BatchNormalization", "inbound_nodes": [[["conv2d_44", 0, 0, {}]]]}, {"name": "batch_normalization_49", "config": {"beta_initializer": {"config": {}, "class_name": "Zeros"}, "beta_constraint": null, "trainable": true, "beta_regularizer": null, "moving_mean_initializer": {"config": {}, "class_name": "Zeros"}, "epsilon": 0.001, "momentum": 0.99, "gamma_regularizer": null, "axis": 3, "center": true, "gamma_constraint": null, "name": "batch_normalization_49", "scale": false, "moving_variance_initializer": {"config": {}, "class_name": "Ones"}, "gamma_initializer": {"config": {}, "class_name": "Ones"}}, "class_name": "BatchNormalization", "inbound_nodes": [[["conv2d_49", 0, 0, {}]]]}, {"name": "batch_normalization_50", "config": {"beta_initializer": {"config": {}, "class_name": "Zeros"}, "beta_constraint": null, "trainable": true, "beta_regularizer": null, "moving_mean_initializer": {"config": {}, "class_name": "Zeros"}, "epsilon": 0.001, "momentum": 0.99, "gamma_regularizer": null, "axis": 3, "center": true, "gamma_constraint": null, "name": "batch_normalization_50", "scale": false, "moving_variance_initializer": {"config": {}, "class_name": "Ones"}, "gamma_initializer": {"config": {}, "class_name": "Ones"}}, "class_name": "BatchNormalization", "inbound_nodes": [[["conv2d_50", 0, 0, {}]]]}, {"name": "activation_41", "config": {"activation": "relu", "name": "activation_41", "trainable": true}, "class_name": "Activation", "inbound_nodes": [[["batch_normalization_41", 0, 0, {}]]]}, {"name": "activation_44", "config": {"activation": "relu", "name": "activation_44", "trainable": true}, "class_name": "Activation", "inbound_nodes": [[["batch_normalization_44", 0, 0, {}]]]}, {"name": "activation_49", "config": {"activation": "relu", "name": "activation_49", "trainable": true}, "class_name": "Activation", "inbound_nodes": [[["batch_normalization_49", 0, 0, {}]]]}, {"name": "activation_50", "config": {"activation": "relu", "name": "activation_50", "trainable": true}, "class_name": "Activation", "inbound_nodes": [[["batch_normalization_50", 0, 0, {}]]]}, {"name": "mixed5", "config": {"name": "mixed5", "trainable": true, "axis": 3}, "class_name": "Concatenate", "inbound_nodes": [[["activation_41", 0, 0, {}], ["activation_44", 0, 0, {}], ["activation_49", 0, 0, {}], ["activation_50", 0, 0, {}]]]}, {"name": "conv2d_55", "config": {"trainable": true, "bias_constraint": null, "kernel_size": [1, 1], "activation": "linear", "activity_regularizer": null, "data_format": "channels_last", "kernel_constraint": null, "kernel_regularizer": null, "padding": "same", "bias_regularizer": null, "filters": 160, "bias_initializer": {"config": {}, "class_name": "Zeros"}, "kernel_initializer": {"config": {"seed": null, "scale": 1.0, "mode": "fan_avg", "distribution": "uniform"}, "class_name": "VarianceScaling"}, "dilation_rate": [1, 1], "name": "conv2d_55", "strides": [1, 1], "use_bias": false}, "class_name": "Conv2D", "inbound_nodes": [[["mixed5", 0, 0, {}]]]}, {"name": "batch_normalization_55", "config": {"beta_initializer": {"config": {}, "class_name": "Zeros"}, "beta_constraint": null, "trainable": true, "beta_regularizer": null, "moving_mean_initializer": {"config": {}, "class_name": "Zeros"}, "epsilon": 0.001, "momentum": 0.99, "gamma_regularizer": null, "axis": 3, "center": true, "gamma_constraint": null, "name": "batch_normalization_55", "scale": false, "moving_variance_initializer": {"config": {}, "class_name": "Ones"}, "gamma_initializer": {"config": {}, "class_name": "Ones"}}, "class_name": "BatchNormalization", "inbound_nodes": [[["conv2d_55", 0, 0, {}]]]}, {"name": "activation_55", "config": {"activation": "relu", "name": "activation_55", "trainable": true}, "class_name": "Activation", "inbound_nodes": [[["batch_normalization_55", 0, 0, {}]]]}, {"name": "conv2d_56", "config": {"trainable": true, "bias_constraint": null, "kernel_size": [7, 1], "activation": "linear", "activity_regularizer": null, "data_format": "channels_last", "kernel_constraint": null, "kernel_regularizer": null, "padding": "same", "bias_regularizer": null, "filters": 160, "bias_initializer": {"config": {}, "class_name": "Zeros"}, "kernel_initializer": {"config": {"seed": null, "scale": 1.0, "mode": "fan_avg", "distribution": "uniform"}, "class_name": "VarianceScaling"}, "dilation_rate": [1, 1], "name": "conv2d_56", "strides": [1, 1], "use_bias": false}, "class_name": "Conv2D", "inbound_nodes": [[["activation_55", 0, 0, {}]]]}, {"name": "batch_normalization_56", "config": {"beta_initializer": {"config": {}, "class_name": "Zeros"}, "beta_constraint": null, "trainable": true, "beta_regularizer": null, "moving_mean_initializer": {"config": {}, "class_name": "Zeros"}, "epsilon": 0.001, "momentum": 0.99, "gamma_regularizer": null, "axis": 3, "center": true, "gamma_constraint": null, "name": "batch_normalization_56", "scale": false, "moving_variance_initializer": {"config": {}, "class_name": "Ones"}, "gamma_initializer": {"config": {}, "class_name": "Ones"}}, "class_name": "BatchNormalization", "inbound_nodes": [[["conv2d_56", 0, 0, {}]]]}, {"name": "activation_56", "config": {"activation": "relu", "name": "activation_56", "trainable": true}, "class_name": "Activation", "inbound_nodes": [[["batch_normalization_56", 0, 0, {}]]]}, {"name": "conv2d_52", "config": {"trainable": true, "bias_constraint": null, "kernel_size": [1, 1], "activation": "linear", "activity_regularizer": null, "data_format": "channels_last", "kernel_constraint": null, "kernel_regularizer": null, "padding": "same", "bias_regularizer": null, "filters": 160, "bias_initializer": {"config": {}, "class_name": "Zeros"}, "kernel_initializer": {"config": {"seed": null, "scale": 1.0, "mode": "fan_avg", "distribution": "uniform"}, "class_name": "VarianceScaling"}, "dilation_rate": [1, 1], "name": "conv2d_52", "strides": [1, 1], "use_bias": false}, "class_name": "Conv2D", "inbound_nodes": [[["mixed5", 0, 0, {}]]]}, {"name": "conv2d_57", "config": {"trainable": true, "bias_constraint": null, "kernel_size": [1, 7], "activation": "linear", "activity_regularizer": null, "data_format": "channels_last", "kernel_constraint": null, "kernel_regularizer": null, "padding": "same", "bias_regularizer": null, "filters": 160, "bias_initializer": {"config": {}, "class_name": "Zeros"}, "kernel_initializer": {"config": {"seed": null, "scale": 1.0, "mode": "fan_avg", "distribution": "uniform"}, "class_name": "VarianceScaling"}, "dilation_rate": [1, 1], "name": "conv2d_57", "strides": [1, 1], "use_bias": false}, "class_name": "Conv2D", "inbound_nodes": [[["activation_56", 0, 0, {}]]]}, {"name": "batch_normalization_52", "config": {"beta_initializer": {"config": {}, "class_name": "Zeros"}, "beta_constraint": null, "trainable": true, "beta_regularizer": null, "moving_mean_initializer": {"config": {}, "class_name": "Zeros"}, "epsilon": 0.001, "momentum": 0.99, "gamma_regularizer": null, "axis": 3, "center": true, "gamma_constraint": null, "name": "batch_normalization_52", "scale": false, "moving_variance_initializer": {"config": {}, "class_name": "Ones"}, "gamma_initializer": {"config": {}, "class_name": "Ones"}}, "class_name": "BatchNormalization", "inbound_nodes": [[["conv2d_52", 0, 0, {}]]]}, {"name": "batch_normalization_57", "config": {"beta_initializer": {"config": {}, "class_name": "Zeros"}, "beta_constraint": null, "trainable": true, "beta_regularizer": null, "moving_mean_initializer": {"config": {}, "class_name": "Zeros"}, "epsilon": 0.001, "momentum": 0.99, "gamma_regularizer": null, "axis": 3, "center": true, "gamma_constraint": null, "name": "batch_normalization_57", "scale": false, "moving_variance_initializer": {"config": {}, "class_name": "Ones"}, "gamma_initializer": {"config": {}, "class_name": "Ones"}}, "class_name": "BatchNormalization", "inbound_nodes": [[["conv2d_57", 0, 0, {}]]]}, {"name": "activation_52", "config": {"activation": "relu", "name": "activation_52", "trainable": true}, "class_name": "Activation", "inbound_nodes": [[["batch_normalization_52", 0, 0, {}]]]}, {"name": "activation_57", "config": {"activation": "relu", "name": "activation_57", "trainable": true}, "class_name": "Activation", "inbound_nodes": [[["batch_normalization_57", 0, 0, {}]]]}, {"name": "conv2d_53", "config": {"trainable": true, "bias_constraint": null, "kernel_size": [1, 7], "activation": "linear", "activity_regularizer": null, "data_format": "channels_last", "kernel_constraint": null, "kernel_regularizer": null, "padding": "same", "bias_regularizer": null, "filters": 160, "bias_initializer": {"config": {}, "class_name": "Zeros"}, "kernel_initializer": {"config": {"seed": null, "scale": 1.0, "mode": "fan_avg", "distribution": "uniform"}, "class_name": "VarianceScaling"}, "dilation_rate": [1, 1], "name": "conv2d_53", "strides": [1, 1], "use_bias": false}, "class_name": "Conv2D", "inbound_nodes": [[["activation_52", 0, 0, {}]]]}, {"name": "conv2d_58", "config": {"trainable": true, "bias_constraint": null, "kernel_size": [7, 1], "activation": "linear", "activity_regularizer": null, "data_format": "channels_last", "kernel_constraint": null, "kernel_regularizer": null, "padding": "same", "bias_regularizer": null, "filters": 160, "bias_initializer": {"config": {}, "class_name": "Zeros"}, "kernel_initializer": {"config": {"seed": null, "scale": 1.0, "mode": "fan_avg", "distribution": "uniform"}, "class_name": "VarianceScaling"}, "dilation_rate": [1, 1], "name": "conv2d_58", "strides": [1, 1], "use_bias": false}, "class_name": "Conv2D", "inbound_nodes": [[["activation_57", 0, 0, {}]]]}, {"name": "batch_normalization_53", "config": {"beta_initializer": {"config": {}, "class_name": "Zeros"}, "beta_constraint": null, "trainable": true, "beta_regularizer": null, "moving_mean_initializer": {"config": {}, "class_name": "Zeros"}, "epsilon": 0.001, "momentum": 0.99, "gamma_regularizer": null, "axis": 3, "center": true, "gamma_constraint": null, "name": "batch_normalization_53", "scale": false, "moving_variance_initializer": {"config": {}, "class_name": "Ones"}, "gamma_initializer": {"config": {}, "class_name": "Ones"}}, "class_name": "BatchNormalization", "inbound_nodes": [[["conv2d_53", 0, 0, {}]]]}, {"name": "batch_normalization_58", "config": {"beta_initializer": {"config": {}, "class_name": "Zeros"}, "beta_constraint": null, "trainable": true, "beta_regularizer": null, "moving_mean_initializer": {"config": {}, "class_name": "Zeros"}, "epsilon": 0.001, "momentum": 0.99, "gamma_regularizer": null, "axis": 3, "center": true, "gamma_constraint": null, "name": "batch_normalization_58", "scale": false, "moving_variance_initializer": {"config": {}, "class_name": "Ones"}, "gamma_initializer": {"config": {}, "class_name": "Ones"}}, "class_name": "BatchNormalization", "inbound_nodes": [[["conv2d_58", 0, 0, {}]]]}, {"name": "activation_53", "config": {"activation": "relu", "name": "activation_53", "trainable": true}, "class_name": "Activation", "inbound_nodes": [[["batch_normalization_53", 0, 0, {}]]]}, {"name": "activation_58", "config": {"activation": "relu", "name": "activation_58", "trainable": true}, "class_name": "Activation", "inbound_nodes": [[["batch_normalization_58", 0, 0, {}]]]}, {"name": "average_pooling2d_6", "config": {"padding": "same", "trainable": true, "name": "average_pooling2d_6", "strides": [1, 1], "pool_size": [3, 3], "data_format": "channels_last"}, "class_name": "AveragePooling2D", "inbound_nodes": [[["mixed5", 0, 0, {}]]]}, {"name": "conv2d_51", "config": {"trainable": true, "bias_constraint": null, "kernel_size": [1, 1], "activation": "linear", "activity_regularizer": null, "data_format": "channels_last", "kernel_constraint": null, "kernel_regularizer": null, "padding": "same", "bias_regularizer": null, "filters": 192, "bias_initializer": {"config": {}, "class_name": "Zeros"}, "kernel_initializer": {"config": {"seed": null, "scale": 1.0, "mode": "fan_avg", "distribution": "uniform"}, "class_name": "VarianceScaling"}, "dilation_rate": [1, 1], "name": "conv2d_51", "strides": [1, 1], "use_bias": false}, "class_name": "Conv2D", "inbound_nodes": [[["mixed5", 0, 0, {}]]]}, {"name": "conv2d_54", "config": {"trainable": true, "bias_constraint": null, "kernel_size": [7, 1], "activation": "linear", "activity_regularizer": null, "data_format": "channels_last", "kernel_constraint": null, "kernel_regularizer": null, "padding": "same", "bias_regularizer": null, "filters": 192, "bias_initializer": {"config": {}, "class_name": "Zeros"}, "kernel_initializer": {"config": {"seed": null, "scale": 1.0, "mode": "fan_avg", "distribution": "uniform"}, "class_name": "VarianceScaling"}, "dilation_rate": [1, 1], "name": "conv2d_54", "strides": [1, 1], "use_bias": false}, "class_name": "Conv2D", "inbound_nodes": [[["activation_53", 0, 0, {}]]]}, {"name": "conv2d_59", "config": {"trainable": true, "bias_constraint": null, "kernel_size": [1, 7], "activation": "linear", "activity_regularizer": null, "data_format": "channels_last", "kernel_constraint": null, "kernel_regularizer": null, "padding": "same", "bias_regularizer": null, "filters": 192, "bias_initializer": {"config": {}, "class_name": "Zeros"}, "kernel_initializer": {"config": {"seed": null, "scale": 1.0, "mode": "fan_avg", "distribution": "uniform"}, "class_name": "VarianceScaling"}, "dilation_rate": [1, 1], "name": "conv2d_59", "strides": [1, 1], "use_bias": false}, "class_name": "Conv2D", "inbound_nodes": [[["activation_58", 0, 0, {}]]]}, {"name": "conv2d_60", "config": {"trainable": true, "bias_constraint": null, "kernel_size": [1, 1], "activation": "linear", "activity_regularizer": null, "data_format": "channels_last", "kernel_constraint": null, "kernel_regularizer": null, "padding": "same", "bias_regularizer": null, "filters": 192, "bias_initializer": {"config": {}, "class_name": "Zeros"}, "kernel_initializer": {"config": {"seed": null, "scale": 1.0, "mode": "fan_avg", "distribution": "uniform"}, "class_name": "VarianceScaling"}, "dilation_rate": [1, 1], "name": "conv2d_60", "strides": [1, 1], "use_bias": false}, "class_name": "Conv2D", "inbound_nodes": [[["average_pooling2d_6", 0, 0, {}]]]}, {"name": "batch_normalization_51", "config": {"beta_initializer": {"config": {}, "class_name": "Zeros"}, "beta_constraint": null, "trainable": true, "beta_regularizer": null, "moving_mean_initializer": {"config": {}, "class_name": "Zeros"}, "epsilon": 0.001, "momentum": 0.99, "gamma_regularizer": null, "axis": 3, "center": true, "gamma_constraint": null, "name": "batch_normalization_51", "scale": false, "moving_variance_initializer": {"config": {}, "class_name": "Ones"}, "gamma_initializer": {"config": {}, "class_name": "Ones"}}, "class_name": "BatchNormalization", "inbound_nodes": [[["conv2d_51", 0, 0, {}]]]}, {"name": "batch_normalization_54", "config": {"beta_initializer": {"config": {}, "class_name": "Zeros"}, "beta_constraint": null, "trainable": true, "beta_regularizer": null, "moving_mean_initializer": {"config": {}, "class_name": "Zeros"}, "epsilon": 0.001, "momentum": 0.99, "gamma_regularizer": null, "axis": 3, "center": true, "gamma_constraint": null, "name": "batch_normalization_54", "scale": false, "moving_variance_initializer": {"config": {}, "class_name": "Ones"}, "gamma_initializer": {"config": {}, "class_name": "Ones"}}, "class_name": "BatchNormalization", "inbound_nodes": [[["conv2d_54", 0, 0, {}]]]}, {"name": "batch_normalization_59", "config": {"beta_initializer": {"config": {}, "class_name": "Zeros"}, "beta_constraint": null, "trainable": true, "beta_regularizer": null, "moving_mean_initializer": {"config": {}, "class_name": "Zeros"}, "epsilon": 0.001, "momentum": 0.99, "gamma_regularizer": null, "axis": 3, "center": true, "gamma_constraint": null, "name": "batch_normalization_59", "scale": false, "moving_variance_initializer": {"config": {}, "class_name": "Ones"}, "gamma_initializer": {"config": {}, "class_name": "Ones"}}, "class_name": "BatchNormalization", "inbound_nodes": [[["conv2d_59", 0, 0, {}]]]}, {"name": "batch_normalization_60", "config": {"beta_initializer": {"config": {}, "class_name": "Zeros"}, "beta_constraint": null, "trainable": true, "beta_regularizer": null, "moving_mean_initializer": {"config": {}, "class_name": "Zeros"}, "epsilon": 0.001, "momentum": 0.99, "gamma_regularizer": null, "axis": 3, "center": true, "gamma_constraint": null, "name": "batch_normalization_60", "scale": false, "moving_variance_initializer": {"config": {}, "class_name": "Ones"}, "gamma_initializer": {"config": {}, "class_name": "Ones"}}, "class_name": "BatchNormalization", "inbound_nodes": [[["conv2d_60", 0, 0, {}]]]}, {"name": "activation_51", "config": {"activation": "relu", "name": "activation_51", "trainable": true}, "class_name": "Activation", "inbound_nodes": [[["batch_normalization_51", 0, 0, {}]]]}, {"name": "activation_54", "config": {"activation": "relu", "name": "activation_54", "trainable": true}, "class_name": "Activation", "inbound_nodes": [[["batch_normalization_54", 0, 0, {}]]]}, {"name": "activation_59", "config": {"activation": "relu", "name": "activation_59", "trainable": true}, "class_name": "Activation", "inbound_nodes": [[["batch_normalization_59", 0, 0, {}]]]}, {"name": "activation_60", "config": {"activation": "relu", "name": "activation_60", "trainable": true}, "class_name": "Activation", "inbound_nodes": [[["batch_normalization_60", 0, 0, {}]]]}, {"name": "mixed6", "config": {"name": "mixed6", "trainable": true, "axis": 3}, "class_name": "Concatenate", "inbound_nodes": [[["activation_51", 0, 0, {}], ["activation_54", 0, 0, {}], ["activation_59", 0, 0, {}], ["activation_60", 0, 0, {}]]]}, {"name": "conv2d_65", "config": {"trainable": true, "bias_constraint": null, "kernel_size": [1, 1], "activation": "linear", "activity_regularizer": null, "data_format": "channels_last", "kernel_constraint": null, "kernel_regularizer": null, "padding": "same", "bias_regularizer": null, "filters": 192, "bias_initializer": {"config": {}, "class_name": "Zeros"}, "kernel_initializer": {"config": {"seed": null, "scale": 1.0, "mode": "fan_avg", "distribution": "uniform"}, "class_name": "VarianceScaling"}, "dilation_rate": [1, 1], "name": "conv2d_65", "strides": [1, 1], "use_bias": false}, "class_name": "Conv2D", "inbound_nodes": [[["mixed6", 0, 0, {}]]]}, {"name": "batch_normalization_65", "config": {"beta_initializer": {"config": {}, "class_name": "Zeros"}, "beta_constraint": null, "trainable": true, "beta_regularizer": null, "moving_mean_initializer": {"config": {}, "class_name": "Zeros"}, "epsilon": 0.001, "momentum": 0.99, "gamma_regularizer": null, "axis": 3, "center": true, "gamma_constraint": null, "name": "batch_normalization_65", "scale": false, "moving_variance_initializer": {"config": {}, "class_name": "Ones"}, "gamma_initializer": {"config": {}, "class_name": "Ones"}}, "class_name": "BatchNormalization", "inbound_nodes": [[["conv2d_65", 0, 0, {}]]]}, {"name": "activation_65", "config": {"activation": "relu", "name": "activation_65", "trainable": true}, "class_name": "Activation", "inbound_nodes": [[["batch_normalization_65", 0, 0, {}]]]}, {"name": "conv2d_66", "config": {"trainable": true, "bias_constraint": null, "kernel_size": [7, 1], "activation": "linear", "activity_regularizer": null, "data_format": "channels_last", "kernel_constraint": null, "kernel_regularizer": null, "padding": "same", "bias_regularizer": null, "filters": 192, "bias_initializer": {"config": {}, "class_name": "Zeros"}, "kernel_initializer": {"config": {"seed": null, "scale": 1.0, "mode": "fan_avg", "distribution": "uniform"}, "class_name": "VarianceScaling"}, "dilation_rate": [1, 1], "name": "conv2d_66", "strides": [1, 1], "use_bias": false}, "class_name": "Conv2D", "inbound_nodes": [[["activation_65", 0, 0, {}]]]}, {"name": "batch_normalization_66", "config": {"beta_initializer": {"config": {}, "class_name": "Zeros"}, "beta_constraint": null, "trainable": true, "beta_regularizer": null, "moving_mean_initializer": {"config": {}, "class_name": "Zeros"}, "epsilon": 0.001, "momentum": 0.99, "gamma_regularizer": null, "axis": 3, "center": true, "gamma_constraint": null, "name": "batch_normalization_66", "scale": false, "moving_variance_initializer": {"config": {}, "class_name": "Ones"}, "gamma_initializer": {"config": {}, "class_name": "Ones"}}, "class_name": "BatchNormalization", "inbound_nodes": [[["conv2d_66", 0, 0, {}]]]}, {"name": "activation_66", "config": {"activation": "relu", "name": "activation_66", "trainable": true}, "class_name": "Activation", "inbound_nodes": [[["batch_normalization_66", 0, 0, {}]]]}, {"name": "conv2d_62", "config": {"trainable": true, "bias_constraint": null, "kernel_size": [1, 1], "activation": "linear", "activity_regularizer": null, "data_format": "channels_last", "kernel_constraint": null, "kernel_regularizer": null, "padding": "same", "bias_regularizer": null, "filters": 192, "bias_initializer": {"config": {}, "class_name": "Zeros"}, "kernel_initializer": {"config": {"seed": null, "scale": 1.0, "mode": "fan_avg", "distribution": "uniform"}, "class_name": "VarianceScaling"}, "dilation_rate": [1, 1], "name": "conv2d_62", "strides": [1, 1], "use_bias": false}, "class_name": "Conv2D", "inbound_nodes": [[["mixed6", 0, 0, {}]]]}, {"name": "conv2d_67", "config": {"trainable": true, "bias_constraint": null, "kernel_size": [1, 7], "activation": "linear", "activity_regularizer": null, "data_format": "channels_last", "kernel_constraint": null, "kernel_regularizer": null, "padding": "same", "bias_regularizer": null, "filters": 192, "bias_initializer": {"config": {}, "class_name": "Zeros"}, "kernel_initializer": {"config": {"seed": null, "scale": 1.0, "mode": "fan_avg", "distribution": "uniform"}, "class_name": "VarianceScaling"}, "dilation_rate": [1, 1], "name": "conv2d_67", "strides": [1, 1], "use_bias": false}, "class_name": "Conv2D", "inbound_nodes": [[["activation_66", 0, 0, {}]]]}, {"name": "batch_normalization_62", "config": {"beta_initializer": {"config": {}, "class_name": "Zeros"}, "beta_constraint": null, "trainable": true, "beta_regularizer": null, "moving_mean_initializer": {"config": {}, "class_name": "Zeros"}, "epsilon": 0.001, "momentum": 0.99, "gamma_regularizer": null, "axis": 3, "center": true, "gamma_constraint": null, "name": "batch_normalization_62", "scale": false, "moving_variance_initializer": {"config": {}, "class_name": "Ones"}, "gamma_initializer": {"config": {}, "class_name": "Ones"}}, "class_name": "BatchNormalization", "inbound_nodes": [[["conv2d_62", 0, 0, {}]]]}, {"name": "batch_normalization_67", "config": {"beta_initializer": {"config": {}, "class_name": "Zeros"}, "beta_constraint": null, "trainable": true, "beta_regularizer": null, "moving_mean_initializer": {"config": {}, "class_name": "Zeros"}, "epsilon": 0.001, "momentum": 0.99, "gamma_regularizer": null, "axis": 3, "center": true, "gamma_constraint": null, "name": "batch_normalization_67", "scale": false, "moving_variance_initializer": {"config": {}, "class_name": "Ones"}, "gamma_initializer": {"config": {}, "class_name": "Ones"}}, "class_name": "BatchNormalization", "inbound_nodes": [[["conv2d_67", 0, 0, {}]]]}, {"name": "activation_62", "config": {"activation": "relu", "name": "activation_62", "trainable": true}, "class_name": "Activation", "inbound_nodes": [[["batch_normalization_62", 0, 0, {}]]]}, {"name": "activation_67", "config": {"activation": "relu", "name": "activation_67", "trainable": true}, "class_name": "Activation", "inbound_nodes": [[["batch_normalization_67", 0, 0, {}]]]}, {"name": "conv2d_63", "config": {"trainable": true, "bias_constraint": null, "kernel_size": [1, 7], "activation": "linear", "activity_regularizer": null, "data_format": "channels_last", "kernel_constraint": null, "kernel_regularizer": null, "padding": "same", "bias_regularizer": null, "filters": 192, "bias_initializer": {"config": {}, "class_name": "Zeros"}, "kernel_initializer": {"config": {"seed": null, "scale": 1.0, "mode": "fan_avg", "distribution": "uniform"}, "class_name": "VarianceScaling"}, "dilation_rate": [1, 1], "name": "conv2d_63", "strides": [1, 1], "use_bias": false}, "class_name": "Conv2D", "inbound_nodes": [[["activation_62", 0, 0, {}]]]}, {"name": "conv2d_68", "config": {"trainable": true, "bias_constraint": null, "kernel_size": [7, 1], "activation": "linear", "activity_regularizer": null, "data_format": "channels_last", "kernel_constraint": null, "kernel_regularizer": null, "padding": "same", "bias_regularizer": null, "filters": 192, "bias_initializer": {"config": {}, "class_name": "Zeros"}, "kernel_initializer": {"config": {"seed": null, "scale": 1.0, "mode": "fan_avg", "distribution": "uniform"}, "class_name": "VarianceScaling"}, "dilation_rate": [1, 1], "name": "conv2d_68", "strides": [1, 1], "use_bias": false}, "class_name": "Conv2D", "inbound_nodes": [[["activation_67", 0, 0, {}]]]}, {"name": "batch_normalization_63", "config": {"beta_initializer": {"config": {}, "class_name": "Zeros"}, "beta_constraint": null, "trainable": true, "beta_regularizer": null, "moving_mean_initializer": {"config": {}, "class_name": "Zeros"}, "epsilon": 0.001, "momentum": 0.99, "gamma_regularizer": null, "axis": 3, "center": true, "gamma_constraint": null, "name": "batch_normalization_63", "scale": false, "moving_variance_initializer": {"config": {}, "class_name": "Ones"}, "gamma_initializer": {"config": {}, "class_name": "Ones"}}, "class_name": "BatchNormalization", "inbound_nodes": [[["conv2d_63", 0, 0, {}]]]}, {"name": "batch_normalization_68", "config": {"beta_initializer": {"config": {}, "class_name": "Zeros"}, "beta_constraint": null, "trainable": true, "beta_regularizer": null, "moving_mean_initializer": {"config": {}, "class_name": "Zeros"}, "epsilon": 0.001, "momentum": 0.99, "gamma_regularizer": null, "axis": 3, "center": true, "gamma_constraint": null, "name": "batch_normalization_68", "scale": false, "moving_variance_initializer": {"config": {}, "class_name": "Ones"}, "gamma_initializer": {"config": {}, "class_name": "Ones"}}, "class_name": "BatchNormalization", "inbound_nodes": [[["conv2d_68", 0, 0, {}]]]}, {"name": "activation_63", "config": {"activation": "relu", "name": "activation_63", "trainable": true}, "class_name": "Activation", "inbound_nodes": [[["batch_normalization_63", 0, 0, {}]]]}, {"name": "activation_68", "config": {"activation": "relu", "name": "activation_68", "trainable": true}, "class_name": "Activation", "inbound_nodes": [[["batch_normalization_68", 0, 0, {}]]]}, {"name": "average_pooling2d_7", "config": {"padding": "same", "trainable": true, "name": "average_pooling2d_7", "strides": [1, 1], "pool_size": [3, 3], "data_format": "channels_last"}, "class_name": "AveragePooling2D", "inbound_nodes": [[["mixed6", 0, 0, {}]]]}, {"name": "conv2d_61", "config": {"trainable": true, "bias_constraint": null, "kernel_size": [1, 1], "activation": "linear", "activity_regularizer": null, "data_format": "channels_last", "kernel_constraint": null, "kernel_regularizer": null, "padding": "same", "bias_regularizer": null, "filters": 192, "bias_initializer": {"config": {}, "class_name": "Zeros"}, "kernel_initializer": {"config": {"seed": null, "scale": 1.0, "mode": "fan_avg", "distribution": "uniform"}, "class_name": "VarianceScaling"}, "dilation_rate": [1, 1], "name": "conv2d_61", "strides": [1, 1], "use_bias": false}, "class_name": "Conv2D", "inbound_nodes": [[["mixed6", 0, 0, {}]]]}, {"name": "conv2d_64", "config": {"trainable": true, "bias_constraint": null, "kernel_size": [7, 1], "activation": "linear", "activity_regularizer": null, "data_format": "channels_last", "kernel_constraint": null, "kernel_regularizer": null, "padding": "same", "bias_regularizer": null, "filters": 192, "bias_initializer": {"config": {}, "class_name": "Zeros"}, "kernel_initializer": {"config": {"seed": null, "scale": 1.0, "mode": "fan_avg", "distribution": "uniform"}, "class_name": "VarianceScaling"}, "dilation_rate": [1, 1], "name": "conv2d_64", "strides": [1, 1], "use_bias": false}, "class_name": "Conv2D", "inbound_nodes": [[["activation_63", 0, 0, {}]]]}, {"name": "conv2d_69", "config": {"trainable": true, "bias_constraint": null, "kernel_size": [1, 7], "activation": "linear", "activity_regularizer": null, "data_format": "channels_last", "kernel_constraint": null, "kernel_regularizer": null, "padding": "same", "bias_regularizer": null, "filters": 192, "bias_initializer": {"config": {}, "class_name": "Zeros"}, "kernel_initializer": {"config": {"seed": null, "scale": 1.0, "mode": "fan_avg", "distribution": "uniform"}, "class_name": "VarianceScaling"}, "dilation_rate": [1, 1], "name": "conv2d_69", "strides": [1, 1], "use_bias": false}, "class_name": "Conv2D", "inbound_nodes": [[["activation_68", 0, 0, {}]]]}, {"name": "conv2d_70", "config": {"trainable": true, "bias_constraint": null, "kernel_size": [1, 1], "activation": "linear", "activity_regularizer": null, "data_format": "channels_last", "kernel_constraint": null, "kernel_regularizer": null, "padding": "same", "bias_regularizer": null, "filters": 192, "bias_initializer": {"config": {}, "class_name": "Zeros"}, "kernel_initializer": {"config": {"seed": null, "scale": 1.0, "mode": "fan_avg", "distribution": "uniform"}, "class_name": "VarianceScaling"}, "dilation_rate": [1, 1], "name": "conv2d_70", "strides": [1, 1], "use_bias": false}, "class_name": "Conv2D", "inbound_nodes": [[["average_pooling2d_7", 0, 0, {}]]]}, {"name": "batch_normalization_61", "config": {"beta_initializer": {"config": {}, "class_name": "Zeros"}, "beta_constraint": null, "trainable": true, "beta_regularizer": null, "moving_mean_initializer": {"config": {}, "class_name": "Zeros"}, "epsilon": 0.001, "momentum": 0.99, "gamma_regularizer": null, "axis": 3, "center": true, "gamma_constraint": null, "name": "batch_normalization_61", "scale": false, "moving_variance_initializer": {"config": {}, "class_name": "Ones"}, "gamma_initializer": {"config": {}, "class_name": "Ones"}}, "class_name": "BatchNormalization", "inbound_nodes": [[["conv2d_61", 0, 0, {}]]]}, {"name": "batch_normalization_64", "config": {"beta_initializer": {"config": {}, "class_name": "Zeros"}, "beta_constraint": null, "trainable": true, "beta_regularizer": null, "moving_mean_initializer": {"config": {}, "class_name": "Zeros"}, "epsilon": 0.001, "momentum": 0.99, "gamma_regularizer": null, "axis": 3, "center": true, "gamma_constraint": null, "name": "batch_normalization_64", "scale": false, "moving_variance_initializer": {"config": {}, "class_name": "Ones"}, "gamma_initializer": {"config": {}, "class_name": "Ones"}}, "class_name": "BatchNormalization", "inbound_nodes": [[["conv2d_64", 0, 0, {}]]]}, {"name": "batch_normalization_69", "config": {"beta_initializer": {"config": {}, "class_name": "Zeros"}, "beta_constraint": null, "trainable": true, "beta_regularizer": null, "moving_mean_initializer": {"config": {}, "class_name": "Zeros"}, "epsilon": 0.001, "momentum": 0.99, "gamma_regularizer": null, "axis": 3, "center": true, "gamma_constraint": null, "name": "batch_normalization_69", "scale": false, "moving_variance_initializer": {"config": {}, "class_name": "Ones"}, "gamma_initializer": {"config": {}, "class_name": "Ones"}}, "class_name": "BatchNormalization", "inbound_nodes": [[["conv2d_69", 0, 0, {}]]]}, {"name": "batch_normalization_70", "config": {"beta_initializer": {"config": {}, "class_name": "Zeros"}, "beta_constraint": null, "trainable": true, "beta_regularizer": null, "moving_mean_initializer": {"config": {}, "class_name": "Zeros"}, "epsilon": 0.001, "momentum": 0.99, "gamma_regularizer": null, "axis": 3, "center": true, "gamma_constraint": null, "name": "batch_normalization_70", "scale": false, "moving_variance_initializer": {"config": {}, "class_name": "Ones"}, "gamma_initializer": {"config": {}, "class_name": "Ones"}}, "class_name": "BatchNormalization", "inbound_nodes": [[["conv2d_70", 0, 0, {}]]]}, {"name": "activation_61", "config": {"activation": "relu", "name": "activation_61", "trainable": true}, "class_name": "Activation", "inbound_nodes": [[["batch_normalization_61", 0, 0, {}]]]}, {"name": "activation_64", "config": {"activation": "relu", "name": "activation_64", "trainable": true}, "class_name": "Activation", "inbound_nodes": [[["batch_normalization_64", 0, 0, {}]]]}, {"name": "activation_69", "config": {"activation": "relu", "name": "activation_69", "trainable": true}, "class_name": "Activation", "inbound_nodes": [[["batch_normalization_69", 0, 0, {}]]]}, {"name": "activation_70", "config": {"activation": "relu", "name": "activation_70", "trainable": true}, "class_name": "Activation", "inbound_nodes": [[["batch_normalization_70", 0, 0, {}]]]}, {"name": "mixed7", "config": {"name": "mixed7", "trainable": true, "axis": 3}, "class_name": "Concatenate", "inbound_nodes": [[["activation_61", 0, 0, {}], ["activation_64", 0, 0, {}], ["activation_69", 0, 0, {}], ["activation_70", 0, 0, {}]]]}, {"name": "conv2d_73", "config": {"trainable": true, "bias_constraint": null, "kernel_size": [1, 1], "activation": "linear", "activity_regularizer": null, "data_format": "channels_last", "kernel_constraint": null, "kernel_regularizer": null, "padding": "same", "bias_regularizer": null, "filters": 192, "bias_initializer": {"config": {}, "class_name": "Zeros"}, "kernel_initializer": {"config": {"seed": null, "scale": 1.0, "mode": "fan_avg", "distribution": "uniform"}, "class_name": "VarianceScaling"}, "dilation_rate": [1, 1], "name": "conv2d_73", "strides": [1, 1], "use_bias": false}, "class_name": "Conv2D", "inbound_nodes": [[["mixed7", 0, 0, {}]]]}, {"name": "batch_normalization_73", "config": {"beta_initializer": {"config": {}, "class_name": "Zeros"}, "beta_constraint": null, "trainable": true, "beta_regularizer": null, "moving_mean_initializer": {"config": {}, "class_name": "Zeros"}, "epsilon": 0.001, "momentum": 0.99, "gamma_regularizer": null, "axis": 3, "center": true, "gamma_constraint": null, "name": "batch_normalization_73", "scale": false, "moving_variance_initializer": {"config": {}, "class_name": "Ones"}, "gamma_initializer": {"config": {}, "class_name": "Ones"}}, "class_name": "BatchNormalization", "inbound_nodes": [[["conv2d_73", 0, 0, {}]]]}, {"name": "activation_73", "config": {"activation": "relu", "name": "activation_73", "trainable": true}, "class_name": "Activation", "inbound_nodes": [[["batch_normalization_73", 0, 0, {}]]]}, {"name": "conv2d_74", "config": {"trainable": true, "bias_constraint": null, "kernel_size": [1, 7], "activation": "linear", "activity_regularizer": null, "data_format": "channels_last", "kernel_constraint": null, "kernel_regularizer": null, "padding": "same", "bias_regularizer": null, "filters": 192, "bias_initializer": {"config": {}, "class_name": "Zeros"}, "kernel_initializer": {"config": {"seed": null, "scale": 1.0, "mode": "fan_avg", "distribution": "uniform"}, "class_name": "VarianceScaling"}, "dilation_rate": [1, 1], "name": "conv2d_74", "strides": [1, 1], "use_bias": false}, "class_name": "Conv2D", "inbound_nodes": [[["activation_73", 0, 0, {}]]]}, {"name": "batch_normalization_74", "config": {"beta_initializer": {"config": {}, "class_name": "Zeros"}, "beta_constraint": null, "trainable": true, "beta_regularizer": null, "moving_mean_initializer": {"config": {}, "class_name": "Zeros"}, "epsilon": 0.001, "momentum": 0.99, "gamma_regularizer": null, "axis": 3, "center": true, "gamma_constraint": null, "name": "batch_normalization_74", "scale": false, "moving_variance_initializer": {"config": {}, "class_name": "Ones"}, "gamma_initializer": {"config": {}, "class_name": "Ones"}}, "class_name": "BatchNormalization", "inbound_nodes": [[["conv2d_74", 0, 0, {}]]]}, {"name": "activation_74", "config": {"activation": "relu", "name": "activation_74", "trainable": true}, "class_name": "Activation", "inbound_nodes": [[["batch_normalization_74", 0, 0, {}]]]}, {"name": "conv2d_71", "config": {"trainable": true, "bias_constraint": null, "kernel_size": [1, 1], "activation": "linear", "activity_regularizer": null, "data_format": "channels_last", "kernel_constraint": null, "kernel_regularizer": null, "padding": "same", "bias_regularizer": null, "filters": 192, "bias_initializer": {"config": {}, "class_name": "Zeros"}, "kernel_initializer": {"config": {"seed": null, "scale": 1.0, "mode": "fan_avg", "distribution": "uniform"}, "class_name": "VarianceScaling"}, "dilation_rate": [1, 1], "name": "conv2d_71", "strides": [1, 1], "use_bias": false}, "class_name": "Conv2D", "inbound_nodes": [[["mixed7", 0, 0, {}]]]}, {"name": "conv2d_75", "config": {"trainable": true, "bias_constraint": null, "kernel_size": [7, 1], "activation": "linear", "activity_regularizer": null, "data_format": "channels_last", "kernel_constraint": null, "kernel_regularizer": null, "padding": "same", "bias_regularizer": null, "filters": 192, "bias_initializer": {"config": {}, "class_name": "Zeros"}, "kernel_initializer": {"config": {"seed": null, "scale": 1.0, "mode": "fan_avg", "distribution": "uniform"}, "class_name": "VarianceScaling"}, "dilation_rate": [1, 1], "name": "conv2d_75", "strides": [1, 1], "use_bias": false}, "class_name": "Conv2D", "inbound_nodes": [[["activation_74", 0, 0, {}]]]}, {"name": "batch_normalization_71", "config": {"beta_initializer": {"config": {}, "class_name": "Zeros"}, "beta_constraint": null, "trainable": true, "beta_regularizer": null, "moving_mean_initializer": {"config": {}, "class_name": "Zeros"}, "epsilon": 0.001, "momentum": 0.99, "gamma_regularizer": null, "axis": 3, "center": true, "gamma_constraint": null, "name": "batch_normalization_71", "scale": false, "moving_variance_initializer": {"config": {}, "class_name": "Ones"}, "gamma_initializer": {"config": {}, "class_name": "Ones"}}, "class_name": "BatchNormalization", "inbound_nodes": [[["conv2d_71", 0, 0, {}]]]}, {"name": "batch_normalization_75", "config": {"beta_initializer": {"config": {}, "class_name": "Zeros"}, "beta_constraint": null, "trainable": true, "beta_regularizer": null, "moving_mean_initializer": {"config": {}, "class_name": "Zeros"}, "epsilon": 0.001, "momentum": 0.99, "gamma_regularizer": null, "axis": 3, "center": true, "gamma_constraint": null, "name": "batch_normalization_75", "scale": false, "moving_variance_initializer": {"config": {}, "class_name": "Ones"}, "gamma_initializer": {"config": {}, "class_name": "Ones"}}, "class_name": "BatchNormalization", "inbound_nodes": [[["conv2d_75", 0, 0, {}]]]}, {"name": "activation_71", "config": {"activation": "relu", "name": "activation_71", "trainable": true}, "class_name": "Activation", "inbound_nodes": [[["batch_normalization_71", 0, 0, {}]]]}, {"name": "activation_75", "config": {"activation": "relu", "name": "activation_75", "trainable": true}, "class_name": "Activation", "inbound_nodes": [[["batch_normalization_75", 0, 0, {}]]]}, {"name": "conv2d_72", "config": {"trainable": true, "bias_constraint": null, "kernel_size": [3, 3], "activation": "linear", "activity_regularizer": null, "data_format": "channels_last", "kernel_constraint": null, "kernel_regularizer": null, "padding": "valid", "bias_regularizer": null, "filters": 320, "bias_initializer": {"config": {}, "class_name": "Zeros"}, "kernel_initializer": {"config": {"seed": null, "scale": 1.0, "mode": "fan_avg", "distribution": "uniform"}, "class_name": "VarianceScaling"}, "dilation_rate": [1, 1], "name": "conv2d_72", "strides": [2, 2], "use_bias": false}, "class_name": "Conv2D", "inbound_nodes": [[["activation_71", 0, 0, {}]]]}, {"name": "conv2d_76", "config": {"trainable": true, "bias_constraint": null, "kernel_size": [3, 3], "activation": "linear", "activity_regularizer": null, "data_format": "channels_last", "kernel_constraint": null, "kernel_regularizer": null, "padding": "valid", "bias_regularizer": null, "filters": 192, "bias_initializer": {"config": {}, "class_name": "Zeros"}, "kernel_initializer": {"config": {"seed": null, "scale": 1.0, "mode": "fan_avg", "distribution": "uniform"}, "class_name": "VarianceScaling"}, "dilation_rate": [1, 1], "name": "conv2d_76", "strides": [2, 2], "use_bias": false}, "class_name": "Conv2D", "inbound_nodes": [[["activation_75", 0, 0, {}]]]}, {"name": "batch_normalization_72", "config": {"beta_initializer": {"config": {}, "class_name": "Zeros"}, "beta_constraint": null, "trainable": true, "beta_regularizer": null, "moving_mean_initializer": {"config": {}, "class_name": "Zeros"}, "epsilon": 0.001, "momentum": 0.99, "gamma_regularizer": null, "axis": 3, "center": true, "gamma_constraint": null, "name": "batch_normalization_72", "scale": false, "moving_variance_initializer": {"config": {}, "class_name": "Ones"}, "gamma_initializer": {"config": {}, "class_name": "Ones"}}, "class_name": "BatchNormalization", "inbound_nodes": [[["conv2d_72", 0, 0, {}]]]}, {"name": "batch_normalization_76", "config": {"beta_initializer": {"config": {}, "class_name": "Zeros"}, "beta_constraint": null, "trainable": true, "beta_regularizer": null, "moving_mean_initializer": {"config": {}, "class_name": "Zeros"}, "epsilon": 0.001, "momentum": 0.99, "gamma_regularizer": null, "axis": 3, "center": true, "gamma_constraint": null, "name": "batch_normalization_76", "scale": false, "moving_variance_initializer": {"config": {}, "class_name": "Ones"}, "gamma_initializer": {"config": {}, "class_name": "Ones"}}, "class_name": "BatchNormalization", "inbound_nodes": [[["conv2d_76", 0, 0, {}]]]}, {"name": "activation_72", "config": {"activation": "relu", "name": "activation_72", "trainable": true}, "class_name": "Activation", "inbound_nodes": [[["batch_normalization_72", 0, 0, {}]]]}, {"name": "activation_76", "config": {"activation": "relu", "name": "activation_76", "trainable": true}, "class_name": "Activation", "inbound_nodes": [[["batch_normalization_76", 0, 0, {}]]]}, {"name": "max_pooling2d_4", "config": {"padding": "valid", "trainable": true, "name": "max_pooling2d_4", "strides": [2, 2], "pool_size": [3, 3], "data_format": "channels_last"}, "class_name": "MaxPooling2D", "inbound_nodes": [[["mixed7", 0, 0, {}]]]}, {"name": "mixed8", "config": {"name": "mixed8", "trainable": true, "axis": 3}, "class_name": "Concatenate", "inbound_nodes": [[["activation_72", 0, 0, {}], ["activation_76", 0, 0, {}], ["max_pooling2d_4", 0, 0, {}]]]}, {"name": "conv2d_81", "config": {"trainable": true, "bias_constraint": null, "kernel_size": [1, 1], "activation": "linear", "activity_regularizer": null, "data_format": "channels_last", "kernel_constraint": null, "kernel_regularizer": null, "padding": "same", "bias_regularizer": null, "filters": 448, "bias_initializer": {"config": {}, "class_name": "Zeros"}, "kernel_initializer": {"config": {"seed": null, "scale": 1.0, "mode": "fan_avg", "distribution": "uniform"}, "class_name": "VarianceScaling"}, "dilation_rate": [1, 1], "name": "conv2d_81", "strides": [1, 1], "use_bias": false}, "class_name": "Conv2D", "inbound_nodes": [[["mixed8", 0, 0, {}]]]}, {"name": "batch_normalization_81", "config": {"beta_initializer": {"config": {}, "class_name": "Zeros"}, "beta_constraint": null, "trainable": true, "beta_regularizer": null, "moving_mean_initializer": {"config": {}, "class_name": "Zeros"}, "epsilon": 0.001, "momentum": 0.99, "gamma_regularizer": null, "axis": 3, "center": true, "gamma_constraint": null, "name": "batch_normalization_81", "scale": false, "moving_variance_initializer": {"config": {}, "class_name": "Ones"}, "gamma_initializer": {"config": {}, "class_name": "Ones"}}, "class_name": "BatchNormalization", "inbound_nodes": [[["conv2d_81", 0, 0, {}]]]}, {"name": "activation_81", "config": {"activation": "relu", "name": "activation_81", "trainable": true}, "class_name": "Activation", "inbound_nodes": [[["batch_normalization_81", 0, 0, {}]]]}, {"name": "conv2d_78", "config": {"trainable": true, "bias_constraint": null, "kernel_size": [1, 1], "activation": "linear", "activity_regularizer": null, "data_format": "channels_last", "kernel_constraint": null, "kernel_regularizer": null, "padding": "same", "bias_regularizer": null, "filters": 384, "bias_initializer": {"config": {}, "class_name": "Zeros"}, "kernel_initializer": {"config": {"seed": null, "scale": 1.0, "mode": "fan_avg", "distribution": "uniform"}, "class_name": "VarianceScaling"}, "dilation_rate": [1, 1], "name": "conv2d_78", "strides": [1, 1], "use_bias": false}, "class_name": "Conv2D", "inbound_nodes": [[["mixed8", 0, 0, {}]]]}, {"name": "conv2d_82", "config": {"trainable": true, "bias_constraint": null, "kernel_size": [3, 3], "activation": "linear", "activity_regularizer": null, "data_format": "channels_last", "kernel_constraint": null, "kernel_regularizer": null, "padding": "same", "bias_regularizer": null, "filters": 384, "bias_initializer": {"config": {}, "class_name": "Zeros"}, "kernel_initializer": {"config": {"seed": null, "scale": 1.0, "mode": "fan_avg", "distribution": "uniform"}, "class_name": "VarianceScaling"}, "dilation_rate": [1, 1], "name": "conv2d_82", "strides": [1, 1], "use_bias": false}, "class_name": "Conv2D", "inbound_nodes": [[["activation_81", 0, 0, {}]]]}, {"name": "batch_normalization_78", "config": {"beta_initializer": {"config": {}, "class_name": "Zeros"}, "beta_constraint": null, "trainable": true, "beta_regularizer": null, "moving_mean_initializer": {"config": {}, "class_name": "Zeros"}, "epsilon": 0.001, "momentum": 0.99, "gamma_regularizer": null, "axis": 3, "center": true, "gamma_constraint": null, "name": "batch_normalization_78", "scale": false, "moving_variance_initializer": {"config": {}, "class_name": "Ones"}, "gamma_initializer": {"config": {}, "class_name": "Ones"}}, "class_name": "BatchNormalization", "inbound_nodes": [[["conv2d_78", 0, 0, {}]]]}, {"name": "batch_normalization_82", "config": {"beta_initializer": {"config": {}, "class_name": "Zeros"}, "beta_constraint": null, "trainable": true, "beta_regularizer": null, "moving_mean_initializer": {"config": {}, "class_name": "Zeros"}, "epsilon": 0.001, "momentum": 0.99, "gamma_regularizer": null, "axis": 3, "center": true, "gamma_constraint": null, "name": "batch_normalization_82", "scale": false, "moving_variance_initializer": {"config": {}, "class_name": "Ones"}, "gamma_initializer": {"config": {}, "class_name": "Ones"}}, "class_name": "BatchNormalization", "inbound_nodes": [[["conv2d_82", 0, 0, {}]]]}, {"name": "activation_78", "config": {"activation": "relu", "name": "activation_78", "trainable": true}, "class_name": "Activation", "inbound_nodes": [[["batch_normalization_78", 0, 0, {}]]]}, {"name": "activation_82", "config": {"activation": "relu", "name": "activation_82", "trainable": true}, "class_name": "Activation", "inbound_nodes": [[["batch_normalization_82", 0, 0, {}]]]}, {"name": "conv2d_79", "config": {"trainable": true, "bias_constraint": null, "kernel_size": [1, 3], "activation": "linear", "activity_regularizer": null, "data_format": "channels_last", "kernel_constraint": null, "kernel_regularizer": null, "padding": "same", "bias_regularizer": null, "filters": 384, "bias_initializer": {"config": {}, "class_name": "Zeros"}, "kernel_initializer": {"config": {"seed": null, "scale": 1.0, "mode": "fan_avg", "distribution": "uniform"}, "class_name": "VarianceScaling"}, "dilation_rate": [1, 1], "name": "conv2d_79", "strides": [1, 1], "use_bias": false}, "class_name": "Conv2D", "inbound_nodes": [[["activation_78", 0, 0, {}]]]}, {"name": "conv2d_80", "config": {"trainable": true, "bias_constraint": null, "kernel_size": [3, 1], "activation": "linear", "activity_regularizer": null, "data_format": "channels_last", "kernel_constraint": null, "kernel_regularizer": null, "padding": "same", "bias_regularizer": null, "filters": 384, "bias_initializer": {"config": {}, "class_name": "Zeros"}, "kernel_initializer": {"config": {"seed": null, "scale": 1.0, "mode": "fan_avg", "distribution": "uniform"}, "class_name": "VarianceScaling"}, "dilation_rate": [1, 1], "name": "conv2d_80", "strides": [1, 1], "use_bias": false}, "class_name": "Conv2D", "inbound_nodes": [[["activation_78", 0, 0, {}]]]}, {"name": "conv2d_83", "config": {"trainable": true, "bias_constraint": null, "kernel_size": [1, 3], "activation": "linear", "activity_regularizer": null, "data_format": "channels_last", "kernel_constraint": null, "kernel_regularizer": null, "padding": "same", "bias_regularizer": null, "filters": 384, "bias_initializer": {"config": {}, "class_name": "Zeros"}, "kernel_initializer": {"config": {"seed": null, "scale": 1.0, "mode": "fan_avg", "distribution": "uniform"}, "class_name": "VarianceScaling"}, "dilation_rate": [1, 1], "name": "conv2d_83", "strides": [1, 1], "use_bias": false}, "class_name": "Conv2D", "inbound_nodes": [[["activation_82", 0, 0, {}]]]}, {"name": "conv2d_84", "config": {"trainable": true, "bias_constraint": null, "kernel_size": [3, 1], "activation": "linear", "activity_regularizer": null, "data_format": "channels_last", "kernel_constraint": null, "kernel_regularizer": null, "padding": "same", "bias_regularizer": null, "filters": 384, "bias_initializer": {"config": {}, "class_name": "Zeros"}, "kernel_initializer": {"config": {"seed": null, "scale": 1.0, "mode": "fan_avg", "distribution": "uniform"}, "class_name": "VarianceScaling"}, "dilation_rate": [1, 1], "name": "conv2d_84", "strides": [1, 1], "use_bias": false}, "class_name": "Conv2D", "inbound_nodes": [[["activation_82", 0, 0, {}]]]}, {"name": "average_pooling2d_8", "config": {"padding": "same", "trainable": true, "name": "average_pooling2d_8", "strides": [1, 1], "pool_size": [3, 3], "data_format": "channels_last"}, "class_name": "AveragePooling2D", "inbound_nodes": [[["mixed8", 0, 0, {}]]]}, {"name": "conv2d_77", "config": {"trainable": true, "bias_constraint": null, "kernel_size": [1, 1], "activation": "linear", "activity_regularizer": null, "data_format": "channels_last", "kernel_constraint": null, "kernel_regularizer": null, "padding": "same", "bias_regularizer": null, "filters": 320, "bias_initializer": {"config": {}, "class_name": "Zeros"}, "kernel_initializer": {"config": {"seed": null, "scale": 1.0, "mode": "fan_avg", "distribution": "uniform"}, "class_name": "VarianceScaling"}, "dilation_rate": [1, 1], "name": "conv2d_77", "strides": [1, 1], "use_bias": false}, "class_name": "Conv2D", "inbound_nodes": [[["mixed8", 0, 0, {}]]]}, {"name": "batch_normalization_79", "config": {"beta_initializer": {"config": {}, "class_name": "Zeros"}, "beta_constraint": null, "trainable": true, "beta_regularizer": null, "moving_mean_initializer": {"config": {}, "class_name": "Zeros"}, "epsilon": 0.001, "momentum": 0.99, "gamma_regularizer": null, "axis": 3, "center": true, "gamma_constraint": null, "name": "batch_normalization_79", "scale": false, "moving_variance_initializer": {"config": {}, "class_name": "Ones"}, "gamma_initializer": {"config": {}, "class_name": "Ones"}}, "class_name": "BatchNormalization", "inbound_nodes": [[["conv2d_79", 0, 0, {}]]]}, {"name": "batch_normalization_80", "config": {"beta_initializer": {"config": {}, "class_name": "Zeros"}, "beta_constraint": null, "trainable": true, "beta_regularizer": null, "moving_mean_initializer": {"config": {}, "class_name": "Zeros"}, "epsilon": 0.001, "momentum": 0.99, "gamma_regularizer": null, "axis": 3, "center": true, "gamma_constraint": null, "name": "batch_normalization_80", "scale": false, "moving_variance_initializer": {"config": {}, "class_name": "Ones"}, "gamma_initializer": {"config": {}, "class_name": "Ones"}}, "class_name": "BatchNormalization", "inbound_nodes": [[["conv2d_80", 0, 0, {}]]]}, {"name": "batch_normalization_83", "config": {"beta_initializer": {"config": {}, "class_name": "Zeros"}, "beta_constraint": null, "trainable": true, "beta_regularizer": null, "moving_mean_initializer": {"config": {}, "class_name": "Zeros"}, "epsilon": 0.001, "momentum": 0.99, "gamma_regularizer": null, "axis": 3, "center": true, "gamma_constraint": null, "name": "batch_normalization_83", "scale": false, "moving_variance_initializer": {"config": {}, "class_name": "Ones"}, "gamma_initializer": {"config": {}, "class_name": "Ones"}}, "class_name": "BatchNormalization", "inbound_nodes": [[["conv2d_83", 0, 0, {}]]]}, {"name": "batch_normalization_84", "config": {"beta_initializer": {"config": {}, "class_name": "Zeros"}, "beta_constraint": null, "trainable": true, "beta_regularizer": null, "moving_mean_initializer": {"config": {}, "class_name": "Zeros"}, "epsilon": 0.001, "momentum": 0.99, "gamma_regularizer": null, "axis": 3, "center": true, "gamma_constraint": null, "name": "batch_normalization_84", "scale": false, "moving_variance_initializer": {"config": {}, "class_name": "Ones"}, "gamma_initializer": {"config": {}, "class_name": "Ones"}}, "class_name": "BatchNormalization", "inbound_nodes": [[["conv2d_84", 0, 0, {}]]]}, {"name": "conv2d_85", "config": {"trainable": true, "bias_constraint": null, "kernel_size": [1, 1], "activation": "linear", "activity_regularizer": null, "data_format": "channels_last", "kernel_constraint": null, "kernel_regularizer": null, "padding": "same", "bias_regularizer": null, "filters": 192, "bias_initializer": {"config": {}, "class_name": "Zeros"}, "kernel_initializer": {"config": {"seed": null, "scale": 1.0, "mode": "fan_avg", "distribution": "uniform"}, "class_name": "VarianceScaling"}, "dilation_rate": [1, 1], "name": "conv2d_85", "strides": [1, 1], "use_bias": false}, "class_name": "Conv2D", "inbound_nodes": [[["average_pooling2d_8", 0, 0, {}]]]}, {"name": "batch_normalization_77", "config": {"beta_initializer": {"config": {}, "class_name": "Zeros"}, "beta_constraint": null, "trainable": true, "beta_regularizer": null, "moving_mean_initializer": {"config": {}, "class_name": "Zeros"}, "epsilon": 0.001, "momentum": 0.99, "gamma_regularizer": null, "axis": 3, "center": true, "gamma_constraint": null, "name": "batch_normalization_77", "scale": false, "moving_variance_initializer": {"config": {}, "class_name": "Ones"}, "gamma_initializer": {"config": {}, "class_name": "Ones"}}, "class_name": "BatchNormalization", "inbound_nodes": [[["conv2d_77", 0, 0, {}]]]}, {"name": "activation_79", "config": {"activation": "relu", "name": "activation_79", "trainable": true}, "class_name": "Activation", "inbound_nodes": [[["batch_normalization_79", 0, 0, {}]]]}, {"name": "activation_80", "config": {"activation": "relu", "name": "activation_80", "trainable": true}, "class_name": "Activation", "inbound_nodes": [[["batch_normalization_80", 0, 0, {}]]]}, {"name": "activation_83", "config": {"activation": "relu", "name": "activation_83", "trainable": true}, "class_name": "Activation", "inbound_nodes": [[["batch_normalization_83", 0, 0, {}]]]}, {"name": "activation_84", "config": {"activation": "relu", "name": "activation_84", "trainable": true}, "class_name": "Activation", "inbound_nodes": [[["batch_normalization_84", 0, 0, {}]]]}, {"name": "batch_normalization_85", "config": {"beta_initializer": {"config": {}, "class_name": "Zeros"}, "beta_constraint": null, "trainable": true, "beta_regularizer": null, "moving_mean_initializer": {"config": {}, "class_name": "Zeros"}, "epsilon": 0.001, "momentum": 0.99, "gamma_regularizer": null, "axis": 3, "center": true, "gamma_constraint": null, "name": "batch_normalization_85", "scale": false, "moving_variance_initializer": {"config": {}, "class_name": "Ones"}, "gamma_initializer": {"config": {}, "class_name": "Ones"}}, "class_name": "BatchNormalization", "inbound_nodes": [[["conv2d_85", 0, 0, {}]]]}, {"name": "activation_77", "config": {"activation": "relu", "name": "activation_77", "trainable": true}, "class_name": "Activation", "inbound_nodes": [[["batch_normalization_77", 0, 0, {}]]]}, {"name": "mixed9_0", "config": {"name": "mixed9_0", "trainable": true, "axis": 3}, "class_name": "Concatenate", "inbound_nodes": [[["activation_79", 0, 0, {}], ["activation_80", 0, 0, {}]]]}, {"name": "concatenate_1", "config": {"name": "concatenate_1", "trainable": true, "axis": 3}, "class_name": "Concatenate", "inbound_nodes": [[["activation_83", 0, 0, {}], ["activation_84", 0, 0, {}]]]}, {"name": "activation_85", "config": {"activation": "relu", "name": "activation_85", "trainable": true}, "class_name": "Activation", "inbound_nodes": [[["batch_normalization_85", 0, 0, {}]]]}, {"name": "mixed9", "config": {"name": "mixed9", "trainable": true, "axis": 3}, "class_name": "Concatenate", "inbound_nodes": [[["activation_77", 0, 0, {}], ["mixed9_0", 0, 0, {}], ["concatenate_1", 0, 0, {}], ["activation_85", 0, 0, {}]]]}, {"name": "conv2d_90", "config": {"trainable": true, "bias_constraint": null, "kernel_size": [1, 1], "activation": "linear", "activity_regularizer": null, "data_format": "channels_last", "kernel_constraint": null, "kernel_regularizer": null, "padding": "same", "bias_regularizer": null, "filters": 448, "bias_initializer": {"config": {}, "class_name": "Zeros"}, "kernel_initializer": {"config": {"seed": null, "scale": 1.0, "mode": "fan_avg", "distribution": "uniform"}, "class_name": "VarianceScaling"}, "dilation_rate": [1, 1], "name": "conv2d_90", "strides": [1, 1], "use_bias": false}, "class_name": "Conv2D", "inbound_nodes": [[["mixed9", 0, 0, {}]]]}, {"name": "batch_normalization_90", "config": {"beta_initializer": {"config": {}, "class_name": "Zeros"}, "beta_constraint": null, "trainable": true, "beta_regularizer": null, "moving_mean_initializer": {"config": {}, "class_name": "Zeros"}, "epsilon": 0.001, "momentum": 0.99, "gamma_regularizer": null, "axis": 3, "center": true, "gamma_constraint": null, "name": "batch_normalization_90", "scale": false, "moving_variance_initializer": {"config": {}, "class_name": "Ones"}, "gamma_initializer": {"config": {}, "class_name": "Ones"}}, "class_name": "BatchNormalization", "inbound_nodes": [[["conv2d_90", 0, 0, {}]]]}, {"name": "activation_90", "config": {"activation": "relu", "name": "activation_90", "trainable": true}, "class_name": "Activation", "inbound_nodes": [[["batch_normalization_90", 0, 0, {}]]]}, {"name": "conv2d_87", "config": {"trainable": true, "bias_constraint": null, "kernel_size": [1, 1], "activation": "linear", "activity_regularizer": null, "data_format": "channels_last", "kernel_constraint": null, "kernel_regularizer": null, "padding": "same", "bias_regularizer": null, "filters": 384, "bias_initializer": {"config": {}, "class_name": "Zeros"}, "kernel_initializer": {"config": {"seed": null, "scale": 1.0, "mode": "fan_avg", "distribution": "uniform"}, "class_name": "VarianceScaling"}, "dilation_rate": [1, 1], "name": "conv2d_87", "strides": [1, 1], "use_bias": false}, "class_name": "Conv2D", "inbound_nodes": [[["mixed9", 0, 0, {}]]]}, {"name": "conv2d_91", "config": {"trainable": true, "bias_constraint": null, "kernel_size": [3, 3], "activation": "linear", "activity_regularizer": null, "data_format": "channels_last", "kernel_constraint": null, "kernel_regularizer": null, "padding": "same", "bias_regularizer": null, "filters": 384, "bias_initializer": {"config": {}, "class_name": "Zeros"}, "kernel_initializer": {"config": {"seed": null, "scale": 1.0, "mode": "fan_avg", "distribution": "uniform"}, "class_name": "VarianceScaling"}, "dilation_rate": [1, 1], "name": "conv2d_91", "strides": [1, 1], "use_bias": false}, "class_name": "Conv2D", "inbound_nodes": [[["activation_90", 0, 0, {}]]]}, {"name": "batch_normalization_87", "config": {"beta_initializer": {"config": {}, "class_name": "Zeros"}, "beta_constraint": null, "trainable": true, "beta_regularizer": null, "moving_mean_initializer": {"config": {}, "class_name": "Zeros"}, "epsilon": 0.001, "momentum": 0.99, "gamma_regularizer": null, "axis": 3, "center": true, "gamma_constraint": null, "name": "batch_normalization_87", "scale": false, "moving_variance_initializer": {"config": {}, "class_name": "Ones"}, "gamma_initializer": {"config": {}, "class_name": "Ones"}}, "class_name": "BatchNormalization", "inbound_nodes": [[["conv2d_87", 0, 0, {}]]]}, {"name": "batch_normalization_91", "config": {"beta_initializer": {"config": {}, "class_name": "Zeros"}, "beta_constraint": null, "trainable": true, "beta_regularizer": null, "moving_mean_initializer": {"config": {}, "class_name": "Zeros"}, "epsilon": 0.001, "momentum": 0.99, "gamma_regularizer": null, "axis": 3, "center": true, "gamma_constraint": null, "name": "batch_normalization_91", "scale": false, "moving_variance_initializer": {"config": {}, "class_name": "Ones"}, "gamma_initializer": {"config": {}, "class_name": "Ones"}}, "class_name": "BatchNormalization", "inbound_nodes": [[["conv2d_91", 0, 0, {}]]]}, {"name": "activation_87", "config": {"activation": "relu", "name": "activation_87", "trainable": true}, "class_name": "Activation", "inbound_nodes": [[["batch_normalization_87", 0, 0, {}]]]}, {"name": "activation_91", "config": {"activation": "relu", "name": "activation_91", "trainable": true}, "class_name": "Activation", "inbound_nodes": [[["batch_normalization_91", 0, 0, {}]]]}, {"name": "conv2d_88", "config": {"trainable": true, "bias_constraint": null, "kernel_size": [1, 3], "activation": "linear", "activity_regularizer": null, "data_format": "channels_last", "kernel_constraint": null, "kernel_regularizer": null, "padding": "same", "bias_regularizer": null, "filters": 384, "bias_initializer": {"config": {}, "class_name": "Zeros"}, "kernel_initializer": {"config": {"seed": null, "scale": 1.0, "mode": "fan_avg", "distribution": "uniform"}, "class_name": "VarianceScaling"}, "dilation_rate": [1, 1], "name": "conv2d_88", "strides": [1, 1], "use_bias": false}, "class_name": "Conv2D", "inbound_nodes": [[["activation_87", 0, 0, {}]]]}, {"name": "conv2d_89", "config": {"trainable": true, "bias_constraint": null, "kernel_size": [3, 1], "activation": "linear", "activity_regularizer": null, "data_format": "channels_last", "kernel_constraint": null, "kernel_regularizer": null, "padding": "same", "bias_regularizer": null, "filters": 384, "bias_initializer": {"config": {}, "class_name": "Zeros"}, "kernel_initializer": {"config": {"seed": null, "scale": 1.0, "mode": "fan_avg", "distribution": "uniform"}, "class_name": "VarianceScaling"}, "dilation_rate": [1, 1], "name": "conv2d_89", "strides": [1, 1], "use_bias": false}, "class_name": "Conv2D", "inbound_nodes": [[["activation_87", 0, 0, {}]]]}, {"name": "conv2d_92", "config": {"trainable": true, "bias_constraint": null, "kernel_size": [1, 3], "activation": "linear", "activity_regularizer": null, "data_format": "channels_last", "kernel_constraint": null, "kernel_regularizer": null, "padding": "same", "bias_regularizer": null, "filters": 384, "bias_initializer": {"config": {}, "class_name": "Zeros"}, "kernel_initializer": {"config": {"seed": null, "scale": 1.0, "mode": "fan_avg", "distribution": "uniform"}, "class_name": "VarianceScaling"}, "dilation_rate": [1, 1], "name": "conv2d_92", "strides": [1, 1], "use_bias": false}, "class_name": "Conv2D", "inbound_nodes": [[["activation_91", 0, 0, {}]]]}, {"name": "conv2d_93", "config": {"trainable": true, "bias_constraint": null, "kernel_size": [3, 1], "activation": "linear", "activity_regularizer": null, "data_format": "channels_last", "kernel_constraint": null, "kernel_regularizer": null, "padding": "same", "bias_regularizer": null, "filters": 384, "bias_initializer": {"config": {}, "class_name": "Zeros"}, "kernel_initializer": {"config": {"seed": null, "scale": 1.0, "mode": "fan_avg", "distribution": "uniform"}, "class_name": "VarianceScaling"}, "dilation_rate": [1, 1], "name": "conv2d_93", "strides": [1, 1], "use_bias": false}, "class_name": "Conv2D", "inbound_nodes": [[["activation_91", 0, 0, {}]]]}, {"name": "average_pooling2d_9", "config": {"padding": "same", "trainable": true, "name": "average_pooling2d_9", "strides": [1, 1], "pool_size": [3, 3], "data_format": "channels_last"}, "class_name": "AveragePooling2D", "inbound_nodes": [[["mixed9", 0, 0, {}]]]}, {"name": "conv2d_86", "config": {"trainable": true, "bias_constraint": null, "kernel_size": [1, 1], "activation": "linear", "activity_regularizer": null, "data_format": "channels_last", "kernel_constraint": null, "kernel_regularizer": null, "padding": "same", "bias_regularizer": null, "filters": 320, "bias_initializer": {"config": {}, "class_name": "Zeros"}, "kernel_initializer": {"config": {"seed": null, "scale": 1.0, "mode": "fan_avg", "distribution": "uniform"}, "class_name": "VarianceScaling"}, "dilation_rate": [1, 1], "name": "conv2d_86", "strides": [1, 1], "use_bias": false}, "class_name": "Conv2D", "inbound_nodes": [[["mixed9", 0, 0, {}]]]}, {"name": "batch_normalization_88", "config": {"beta_initializer": {"config": {}, "class_name": "Zeros"}, "beta_constraint": null, "trainable": true, "beta_regularizer": null, "moving_mean_initializer": {"config": {}, "class_name": "Zeros"}, "epsilon": 0.001, "momentum": 0.99, "gamma_regularizer": null, "axis": 3, "center": true, "gamma_constraint": null, "name": "batch_normalization_88", "scale": false, "moving_variance_initializer": {"config": {}, "class_name": "Ones"}, "gamma_initializer": {"config": {}, "class_name": "Ones"}}, "class_name": "BatchNormalization", "inbound_nodes": [[["conv2d_88", 0, 0, {}]]]}, {"name": "batch_normalization_89", "config": {"beta_initializer": {"config": {}, "class_name": "Zeros"}, "beta_constraint": null, "trainable": true, "beta_regularizer": null, "moving_mean_initializer": {"config": {}, "class_name": "Zeros"}, "epsilon": 0.001, "momentum": 0.99, "gamma_regularizer": null, "axis": 3, "center": true, "gamma_constraint": null, "name": "batch_normalization_89", "scale": false, "moving_variance_initializer": {"config": {}, "class_name": "Ones"}, "gamma_initializer": {"config": {}, "class_name": "Ones"}}, "class_name": "BatchNormalization", "inbound_nodes": [[["conv2d_89", 0, 0, {}]]]}, {"name": "batch_normalization_92", "config": {"beta_initializer": {"config": {}, "class_name": "Zeros"}, "beta_constraint": null, "trainable": true, "beta_regularizer": null, "moving_mean_initializer": {"config": {}, "class_name": "Zeros"}, "epsilon": 0.001, "momentum": 0.99, "gamma_regularizer": null, "axis": 3, "center": true, "gamma_constraint": null, "name": "batch_normalization_92", "scale": false, "moving_variance_initializer": {"config": {}, "class_name": "Ones"}, "gamma_initializer": {"config": {}, "class_name": "Ones"}}, "class_name": "BatchNormalization", "inbound_nodes": [[["conv2d_92", 0, 0, {}]]]}, {"name": "batch_normalization_93", "config": {"beta_initializer": {"config": {}, "class_name": "Zeros"}, "beta_constraint": null, "trainable": true, "beta_regularizer": null, "moving_mean_initializer": {"config": {}, "class_name": "Zeros"}, "epsilon": 0.001, "momentum": 0.99, "gamma_regularizer": null, "axis": 3, "center": true, "gamma_constraint": null, "name": "batch_normalization_93", "scale": false, "moving_variance_initializer": {"config": {}, "class_name": "Ones"}, "gamma_initializer": {"config": {}, "class_name": "Ones"}}, "class_name": "BatchNormalization", "inbound_nodes": [[["conv2d_93", 0, 0, {}]]]}, {"name": "conv2d_94", "config": {"trainable": true, "bias_constraint": null, "kernel_size": [1, 1], "activation": "linear", "activity_regularizer": null, "data_format": "channels_last", "kernel_constraint": null, "kernel_regularizer": null, "padding": "same", "bias_regularizer": null, "filters": 192, "bias_initializer": {"config": {}, "class_name": "Zeros"}, "kernel_initializer": {"config": {"seed": null, "scale": 1.0, "mode": "fan_avg", "distribution": "uniform"}, "class_name": "VarianceScaling"}, "dilation_rate": [1, 1], "name": "conv2d_94", "strides": [1, 1], "use_bias": false}, "class_name": "Conv2D", "inbound_nodes": [[["average_pooling2d_9", 0, 0, {}]]]}, {"name": "batch_normalization_86", "config": {"beta_initializer": {"config": {}, "class_name": "Zeros"}, "beta_constraint": null, "trainable": true, "beta_regularizer": null, "moving_mean_initializer": {"config": {}, "class_name": "Zeros"}, "epsilon": 0.001, "momentum": 0.99, "gamma_regularizer": null, "axis": 3, "center": true, "gamma_constraint": null, "name": "batch_normalization_86", "scale": false, "moving_variance_initializer": {"config": {}, "class_name": "Ones"}, "gamma_initializer": {"config": {}, "class_name": "Ones"}}, "class_name": "BatchNormalization", "inbound_nodes": [[["conv2d_86", 0, 0, {}]]]}, {"name": "activation_88", "config": {"activation": "relu", "name": "activation_88", "trainable": true}, "class_name": "Activation", "inbound_nodes": [[["batch_normalization_88", 0, 0, {}]]]}, {"name": "activation_89", "config": {"activation": "relu", "name": "activation_89", "trainable": true}, "class_name": "Activation", "inbound_nodes": [[["batch_normalization_89", 0, 0, {}]]]}, {"name": "activation_92", "config": {"activation": "relu", "name": "activation_92", "trainable": true}, "class_name": "Activation", "inbound_nodes": [[["batch_normalization_92", 0, 0, {}]]]}, {"name": "activation_93", "config": {"activation": "relu", "name": "activation_93", "trainable": true}, "class_name": "Activation", "inbound_nodes": [[["batch_normalization_93", 0, 0, {}]]]}, {"name": "batch_normalization_94", "config": {"beta_initializer": {"config": {}, "class_name": "Zeros"}, "beta_constraint": null, "trainable": true, "beta_regularizer": null, "moving_mean_initializer": {"config": {}, "class_name": "Zeros"}, "epsilon": 0.001, "momentum": 0.99, "gamma_regularizer": null, "axis": 3, "center": true, "gamma_constraint": null, "name": "batch_normalization_94", "scale": false, "moving_variance_initializer": {"config": {}, "class_name": "Ones"}, "gamma_initializer": {"config": {}, "class_name": "Ones"}}, "class_name": "BatchNormalization", "inbound_nodes": [[["conv2d_94", 0, 0, {}]]]}, {"name": "activation_86", "config": {"activation": "relu", "name": "activation_86", "trainable": true}, "class_name": "Activation", "inbound_nodes": [[["batch_normalization_86", 0, 0, {}]]]}, {"name": "mixed9_1", "config": {"name": "mixed9_1", "trainable": true, "axis": 3}, "class_name": "Concatenate", "inbound_nodes": [[["activation_88", 0, 0, {}], ["activation_89", 0, 0, {}]]]}, {"name": "concatenate_2", "config": {"name": "concatenate_2", "trainable": true, "axis": 3}, "class_name": "Concatenate", "inbound_nodes": [[["activation_92", 0, 0, {}], ["activation_93", 0, 0, {}]]]}, {"name": "activation_94", "config": {"activation": "relu", "name": "activation_94", "trainable": true}, "class_name": "Activation", "inbound_nodes": [[["batch_normalization_94", 0, 0, {}]]]}, {"name": "mixed10", "config": {"name": "mixed10", "trainable": true, "axis": 3}, "class_name": "Concatenate", "inbound_nodes": [[["activation_86", 0, 0, {}], ["mixed9_1", 0, 0, {}], ["concatenate_2", 0, 0, {}], ["activation_94", 0, 0, {}]]]}, {"name": "global_average_pooling2d_1", "config": {"name": "global_average_pooling2d_1", "trainable": true, "data_format": "channels_last"}, "class_name": "GlobalAveragePooling2D", "inbound_nodes": [[["mixed10", 0, 0, {}]]]}, {"name": "dense_1", "config": {"trainable": true, "bias_constraint": null, "activation": "softmax", "bias_initializer": {"config": {}, "class_name": "Zeros"}, "units": 2, "kernel_constraint": null, "kernel_regularizer": null, "bias_regularizer": null, "activity_regularizer": null, "kernel_initializer": {"config": {"seed": null, "scale": 1.0, "mode": "fan_avg", "distribution": "uniform"}, "class_name": "VarianceScaling"}, "name": "dense_1", "use_bias": true}, "class_name": "Dense", "inbound_nodes": [[["global_average_pooling2d_1", 0, 0, {}]]]}]}, "class_name": "Model", "keras_version": "2.2.4", "backend": "tensorflow"}